model_export.onnx (onnx, 657055 bytes, 47 tensors)

1.weight f4 [64, 2, 3]
00000000: 0000 0000 a3b4 823e bf61 73be 9b6b 02bf
00000010: 0000 0080 79fb cd3e 0000 0000 c1d2 f83e
00000020: 0000 0000 0000 0080 0000 0080 0000 0080
00000030: 03b6 d3be c315 eebe 0000 0080 0000 0080
00000040: 0000 0000 0000 0000 fef6 febe 0000 0080
00000050: 0000 0000 ec50 f53e 0000 0000 a340 a93e
00000060: 0000 0080 0000 0000 cb07 fc3e d35e 93be
00000070: 0000 0080 9848 a8be 0000 0080 0000 0000
00000080: 0000 0080 0000 0080 4802 c1be d9ee edbe
00000090: 3a8d 48be 0000 0000 4054 fe3e 0000 0000
000000a0: 0000 0000 0000 0080 0000 0000 d52e fbbe
000000b0: a074 02bf 0000 0080 0000 0000 b413 ce3e
000000c0: 0000 0080 0000 0000 0000 0000 8b74 bd3e
000000d0: 8df0 ef3e 0000 0000 6114 eb3e 0000 0080
000000e0: 0000 0000 20be d0be cff4 f8be 1922 a8be
000000f0: ca80 023f a7cc 013f 0000 0080 0000 0000
00000100: db55 a93e d568 cd3e 0000 0080 0000 0080
00000110: 0000 0000 4ebc 023f 0000 0080 33f0 f2be
00000120: 59a9 f93e 2f0c 963e b6db c03e f000 c03e
00000130: 0000 0000 0000 0080 0000 0000 671c fdbe
00000140: fbda eebe d54b fe3e 11e5 af3e 0000 0080
00000150: 0000 0080 0000 0080 0000 0080 461e fdbe
00000160: 0000 0080 058b d1be 0000 0000 ccc2 f73e
00000170: 338f fa3e 0000 0000 ff85 c1be e73a b4be
00000180: 0000 0000 0000 0000 0000 0080 e379 f3be
00000190: 5187 f93e 1a8f 023f 0000 0080 dc31 cdbe
000001a0: 344d fabe 0000 0080 ba9c e2be d1a3 02bf
000001b0: 0000 0000 0000 0080 eca7 fabe 0000 0000
000001c0: 0000 0080 d93e e83e 9bd1 fd3e 2fc3 9fbe
000001d0: 3f16 d4be 0000 0080 0000 0000 0000 0080
000001e0: bac0 ad3e 0000 0000 0000 0080 0000 0000
000001f0: f20d adbe f407 01bf 01e0 cdbe d60f 9cbe
00000200: 0000 0080 75e3 00bf d714 cdbe 0000 0080
00000210: 51a6 02bf 0000 0080 b606 f33e 0000 0000
00000220: 0000 0080 0000 0080 0000 0000 2eaf cc3e
00000230: 78e3 f63e 36bc f63e 774f 003f 0000 0000
00000240: 67bb 9abe 0000 0080 a15e 823e 3257 cbbe
00000250: c08d 00bf ca80 f6be bac7 f6be 56db d3be
00000260: 0000 0080 0000 0000 0000 0000 0000 0080
00000270: 0000 0000 0171 cebe 0000 0080 5106 c8be
00000280: d855 02bf 0000 0080 bb2c cfbe 8b32 f2be
00000290: 0000 0080 0000 0080 0000 0080 0000 0000
000002a0: 008b d3be 0000 0080 aedf dc3e 0000 0080
000002b0: 4fe9 f83e fb44 f53e be93 00bf f35f f43e
000002c0: 0000 0080 0000 0080 099e f23e be5e ffbe
000002d0: 0000 0000 0000 0000 5a17 013f 0000 0000
000002e0: 0d17 f33e bf50 ae3e 0000 0080 0000 0080
000002f0: c65c a9be b093 e53e 309c 003f 05c6 f13e
00000300: 287c 00bf 1d95 e5be 9c4f eebe 475b cbbe
00000310: 52b9 f2be 0000 0000 9a0e abbe 0000 0080
00000320: 0000 0080 f3f6 5d3e 3e2a 83be 6fa4 02bf
00000330: 0000 0080 0000 0000 0000 0080 0bae fd3e
00000340: 6343 cd3e f0b5 ca3e 0000 0080 0000 0000
00000350: 0000 0000 73c5 d4be 5506 e0be 0000 0080
00000360: 0000 0080 0000 0080 0000 0000 f9da 01bf
00000370: 0000 0080 6a0e f43e 038d 023f 0000 0000
00000380: f8dc f2be 0000 0000 0000 0080 0000 0080
00000390: 0000 0080 0000 0080 0000 0000 0000 0000
000003a0: 13d1 e43e 1e36 d53e 0000 0000 0000 0080
000003b0: d622 013f 304e c9be 18e5 f2be 0000 0080
000003c0: f13f f33e 36f0 f23e 0000 0080 0000 0080
000003d0: 0000 0000 e4bf eabe d24c f93e adfe 81be
000003e0: 0000 0000 0000 0080 0000 0080 0000 0080
000003f0: 0000 0000 0000 0080 7da5 f7be d1ce febe
0.0 0.2552844 -0.23767756 -0.5094544 -0.0 0.4023092 0.0 0.48598292
0.0 -0.0 -0.0 -0.0 -0.413498 -0.46500978 -0.0 -0.0
0.0 0.0 -0.49797815 -0.0 0.0 0.479133 0.0 0.33057126
-0.0 0.0 0.49224696 -0.28783283 -0.0 -0.32867885 -0.0 0.0
-0.0 -0.0 -0.37697053 -0.4647129 -0.19585124 0.0 0.49673653 0.0
0.0 -0.0 0.0 -0.49059168 -0.50959206 -0.0 0.0 0.40249407
-0.0 0.0 0.0 0.37002978 0.46863213 0.0 0.45913985 -0.0
0.0 -0.40770054 -0.48624274 -0.32838514 0.50977767 0.507029 -0.0 0.0
0.33073315 0.40119043 -0.0 -0.0 0.0 0.5106858 -0.0 -0.47448882
0.48762015 0.2930617 0.37667626 0.37500715 0.0 -0.0 0.0 -0.49435732
-0.46651444 0.4966723 0.3435445 -0.0 -0.0 -0.0 -0.0 -0.4943716
-0.0 -0.40926376 0.0 0.48390806 0.48937377 0.0 -0.37797543 -0.3520119
0.0 0.0 -0.0 -0.4755393 0.4873605 0.50999606 -0.0 -0.40077102
-0.48887026 -0.0 -0.44260198 -0.51031214 0.0 -0.0 -0.4895624 0.0
-0.0 0.4536045 0.4957398 -0.312036 -0.41423222 -0.0 0.0 -0.0
0.339361 0.0 -0.0 0.0 -0.33799702 -0.5040276 -0.40209964 -0.30480832
-0.0 -0.5034707 -0.40054962 -0.0 -0.5103503 -0.0 0.47466058 0.0
-0.0 -0.0 0.0 0.39977401 0.4822042 0.4819047 0.50121254 0.0
-0.30221102 -0.0 0.2546282 -0.39714962 -0.50216293 -0.48145133 -0.48199254 -0.41378278
-0.0 0.0 0.0 -0.0 0.0 -0.4032059 -0.0 -0.3906732
-0.5091224 -0.0 -0.40463814 -0.47304186 -0.0 -0.0 -0.0 0.0
-0.41316986 -0.0 0.43139404 -0.0 0.486155 0.4790419 -0.50225437 0.47729453
-0.0 -0.0 0.47386196 -0.4987697 0.0 0.0 0.50426257 0.0
0.47478524 0.3404598 -0.0 -0.0 -0.33078593 0.4483924 0.50238323 0.4722139
-0.5018945 -0.44840327 -0.46545112 -0.39718077 -0.47407013 0.0 -0.33409578 -0.0
-0.0 0.21676235 -0.25618166 -0.51032156 -0.0 0.0 -0.0 0.49546847
0.40090474 0.39591932 -0.0 0.0 0.0 -0.41556892 -0.4375483 -0.0
-0.0 -0.0 0.0 -0.5072475 -0.0 0.47667247 0.50996417 0.0
-0.4743421 0.0 -0.0 -0.0 -0.0 -0.0 0.0 0.0
0.4469076 0.4164285 0.0 -0.0 0.5044378 -0.39317465 -0.4744041 -0.0
0.4750972 0.4744889 -0.0 -0.0 0.0 -0.45849526 0.48691422 -0.25389615
0.0 -0.0 -0.0 -0.0 0.0 -0.0 -0.48368445 -0.49767163

2.weight f4 [64]
00000000: 7d95 3d3f 03e8 833f 960e a63f 67f5 993f
00000010: edb6 8a3f 2716 9e3f e701 5d3f c62e 903f
00000020: 36ee 803f 6073 a13f 9eb9 843f 493a 4c3f
00000030: 9560 8d3f 1108 8f3f 9606 993f 9b68 a33f
00000040: 09de 7f3f 3e7a a83f ddb1 7d3f 1643 6b3f
00000050: c441 8f3f 62c0 8d3f e8ca 843f a65b a93f
00000060: 552b 943f 8c82 9a3f 2e3d 833f e58d 873f
00000070: 6ae6 803f 492d 473f 2fe7 7d3f 4fec a93f
00000080: 6231 9f3f f897 7a3f bf18 823f 3ee2 803f
00000090: 847c 473f 0c0e 963f 191c 923f 84d6 813f
000000a0: 5de1 8c3f 5342 453f ebba 953f 3e99 653f
000000b0: b9c2 793f 0fe9 7c3f d50d 7c3f ce7f 473f
000000c0: 27a1 8c3f a9e4 5a3f eff5 723f 5257 8a3f
000000d0: a307 813f 6cc8 823f faf0 a23f 0155 813f
000000e0: c959 843f bfb4 973f d114 973f 0eae 593f
000000f0: 2e4a ac3f e430 b33f a0a9 8a3f 6ef1 8a3f
0.74056226 1.0305179 1.2973201 1.2028016 1.0837075 1.235051 0.8633103 1.1264274
1.0072696 1.2613335 1.0369146 0.79776436 1.10451 1.1174337 1.1955135 1.2766298
0.99948174 1.3162305 0.9909952 0.9189924 1.1191945 1.1074336 1.0374422 1.3231094
1.1575724 1.207109 1.0253046 1.0590178 1.0070317 0.77803475 0.99180883 1.3275241
1.2436945 0.97888136 1.0163802 1.0069044 0.7792437 1.1723037 1.1414825 1.014359
1.1006275 0.7705433 1.1697668 0.89686954 0.9756275 0.9879312 0.98458606 0.7792939
1.098668 0.8550516 0.94906515 1.0807898 1.0080456 1.0217414 1.272979 1.0104066
1.03399 1.1852034 1.1803228 0.8503121 1.3460138 1.3999295 1.0833015 1.0854928

2.bias f4 [64]
00000000: 0cf1 a8be 22b7 efbd 94a5 b7be c198 3c3e
00000010: 79de ea3e 8c4f fbbe 1e3d 97be 7441 b4bd
00000020: 1084 3fbe 1fd3 8cbd 8ae3 81be 0725 95bd
00000030: f5e9 bcbe 61ff e2bd a95d d23d 7b51 e3bd
00000040: 2a91 52be 8f95 75be 270a 823d c918 acbe
00000050: 0d7b afbd 50c8 cb3e 80fe 55bd d9df dabe
00000060: fac6 57be 27de b33c fa68 66be 49b2 3abe
00000070: f20e abbd a26b eabd 851b 413e 8382 3cbe
00000080: e373 db3c 3f9e 1d3e 3ce9 d83e 3ccb e3be
00000090: a8e9 84bd 26ac 9ebd 502e 09bf 5113 30be
000000a0: 70f5 79be 0444 813c 8e2d 8cbe 6247 323e
000000b0: dac2 00be 9cf9 b13e 53e3 e5bd bc22 5b3d
000000c0: e3f5 f9be 340d e0bd 6565 c6be 5ca3 0fbe
000000d0: a9e9 fdbe 4b68 53be 3561 1dbf 61eb b4be
000000e0: 3f34 d83e f716 0abd 9b2d 1cbf af88 79be
000000f0: a157 e7be c466 96be 9dc4 af3e 0f9c 87bc
-0.32996404 -0.11704852 -0.35868514 0.18417646 0.45872858 -0.49084127 -0.29538816 -0.08801547
-0.18702722 -0.06876206 -0.2536891 -0.07282453 -0.36897245 -0.11083866 0.102717705 -0.110995255
-0.20563188 -0.23982833 0.06349593 -0.3361266 -0.08568392 0.39801264 -0.052244663 -0.42748907
-0.21071997 0.021956516 -0.22500983 -0.18232073 -0.0835246 -0.114463106 0.18858154 -0.18409161
0.026788658 0.15392397 0.42365444 -0.44490993 -0.06489879 -0.077476785 -0.5358629 -0.17194869
-0.24410033 0.015779503 -0.27378505 0.17410043 -0.1257433 0.3476075 -0.11224999 0.053499922
-0.4882041 -0.10940018 -0.38749233 -0.1402716 -0.4959233 -0.20645253 -0.6147645 -0.3533583
0.4222736 -0.033713307 -0.6100709 -0.24368547 -0.45184043 -0.2937528 0.34329692 -0.016553907

2.running_mean f4 [64]
00000000: 069a 443a 4e4d 61bb 5c1b c13b dc0d c1bb
00000010: 03b0 6a3b b03a 0c3c 0557 00bb 0592 103b
00000020: 5049 0cbc 4251 323c a49b 7cbc 0dc2 17b6
00000030: be5c 40bc 2ef0 41bb d794 253c 7e28 6f3a
00000040: b8a2 b2bb 4c26 833c 8576 a1ba 4773 c03a
00000050: 3478 e13b 1687 693c 4f0b 18b7 107e 89bc
00000060: fe43 7a3c ca32 d13b 8a54 493c 5c1b c13b
00000070: be68 32bc 11b8 483a 9f3e 51bc 7e09 4abc
00000080: c289 923c 7935 0e3c e0ab 58bc a006 193c
00000090: 0dc2 1736 d38b 29b7 7efe 18bc ae02 c13b
000000a0: d565 0fbb 03b9 00bb 9dc0 6a3c dfbe 03bb
000000b0: 5049 0cbc 3464 133c a349 01ba 663e 41ba
000000c0: e9f7 c03b d8ca 35b7 7405 d13b a9e7 b0bb
000000d0: efcb a2bb 0a1d 043b ecb2 08bc 82e1 803b
000000e0: d3b9 08bc cc3e 95bc e4d8 18bc 6a64 96bb
000000f0: 27b8 a2bb 7db9 4a3a 72be 103c 0d1e 43bc
0.0007499758 -0.0034378353 0.005893154 -0.0058915447 0.0035810478 0.008558914 -0.0019583118 0.002205969
-0.008562401 0.010883631 -0.015417967 -2.2613706e-06 -0.011740861 -0.002959262 0.010106287 0.000912316
-0.0054515265 0.016009472 -0.0012318647 0.0014682793 0.0068807844 0.014253398 -9.062539e-06 -0.016783744
0.015275 0.0063842284 0.012288222 0.005893154 -0.01088923 0.00076568226 -0.012771278 -0.012331365
0.017887954 0.008679741 -0.013224572 0.009339958 2.2613706e-06 -1.010574e-05 -0.009338019 0.005890212
-0.0021880765 -0.0019641526 0.014328149 -0.0020102782 -0.008562401 0.008996058 -0.0004931932 -0.0007371664
0.005888928 -1.0835669e-05 0.006378824 -0.00539871 -0.0049681584 0.002015891 -0.00834344 0.0039331326
-0.008345085 -0.01821842 -0.0093290545 -0.004589607 -0.0049658003 0.00077333284 0.008834468 -0.01190902

2.running_var f4 [64]
00000000: 7b03 003e 3aad 2e3e a952 d73e 34bf 173f
00000010: aaf0 d03e 39b7 b73e 951e d93d b111 333f
00000020: e3bb b73e a6d1 713f 5cce 683f 0ac1 f03d
00000030: 96b0 483f 2009 6e3f 19cd fc3e ca00 5f3f
00000040: 9388 943e 7109 6c3f 797c 983e 9b69 103e
00000050: d1a0 033f d0a8 383f d546 eb3d d6ca 7e3f
00000060: b75f 843f edfa fc3e f645 0d3f a952 d73e
00000070: f18c 293f d9fc 533e 349d 183f cd32 8b3f
00000080: 6fb2 aa3f 0926 a83e 1286 4c3f 814e da3e
00000090: 0ac1 f03d f871 f03d d34e da3e 92a2 173f
000000a0: 50fe 2d3f 690e d23d 4cc4 3e3f 4017 a23e
000000b0: e3bb b73e e315 f53e 9f18 173e 60f0 363e
000000c0: 127d d83e cf35 e03d 295a f93e 3089 b73e
000000d0: b69d 853e 6523 b03e 5699 4a3f 2a4a 8f3e
000000e0: ba6a 4a3f f250 953f fa5e d83e 84d0 4a3e
000000f0: 2dc6 0540 2bce 623e cf3c 613f 028d 703f
0.12501328 0.17058268 0.42055252 0.5927613 0.40808612 0.35881975 0.10601536 0.6994887
0.35885534 0.94460523 0.9093988 0.11755569 0.7839445 0.92982674 0.49375227 0.8711058
0.29010448 0.92201906 0.29782465 0.14102785 0.5141726 0.7213259 0.114881195 0.99528253
1.034171 0.4941019 0.55184877 0.42055252 0.66230685 0.20701922 0.5961487 1.0874878
1.3335704 0.3284152 0.79892075 0.4263802 0.11755569 0.11740488 0.42638263 0.5923244
0.67966175 0.10256655 0.74518275 0.31658363 0.35885534 0.4786826 0.14755486 0.17865133
0.4228292 0.10947763 0.487016 0.35846853 0.26096886 0.34402004 0.7914022 0.2798627
0.790691 1.1665328 0.4225996 0.19806105 2.0902207 0.2214896 0.8798341 0.9396516

5.weight f4 [64, 64, 3]
00000000: 0000 0000 0000 0000 0000 0000 0000 0080
00000010: 0000 0080 0000 0080 0000 0000 0000 0080
00000020: 0000 0080 0000 0080 0000 0080 0000 0080
00000030: 0000 0000 0000 0000 0000 0080 0000 0000
00000040: 0000 0000 e306 c6be 0000 0080 0000 0000
00000050: 20da 013e 0000 0080 0000 0080 0000 0000
00000060: 0000 0080 0000 0000 11f0 19bf 0000 0000
00000070: 0000 0000 0000 0080 0000 0080 0000 0080
00000080: 5db1 0fbf 2a47 bcbe 0000 0000 0000 0000
00000090: 0000 0080 0000 0080 0000 0080 0000 0080
000000a0: 0000 0080 0000 0080 0000 0000 0000 0080
000000b0: 9392 c5be 0000 0080 0000 0080 0000 0080
000000c0: 0000 0000 0000 0000 0000 0080 0000 0000
000000d0: 0000 0080 0000 0080 0000 0080 0000 0080
000000e0: 0000 0000 0000 0080 0000 0080 0000 0000
000000f0: 0000 0080 0000 0080 37e0 c2be 0000 0000
00000100: 0000 0000 0000 0080 0000 0080 0000 0000
00000110: 0000 0000 0000 0080 0000 0080 0000 0000
00000120: 0000 0000 0000 0080 0000 0080 0000 0080
00000130: 0000 0000 8931 f2be 0000 0000 0000 0080
00000140: 0000 0080 0000 0000 0000 0080 e265 05bf
00000150: 0000 0080 0000 0080 0000 0080 0000 0080
00000160: 0000 0000 0000 0000 0000 0080 ebf5 13bf
00000170: 0000 0000 0000 0080 707e 13bf 0000 0080
00000180: 0000 0000 0000 0080 0000 0080 0000 0000
00000190: 0000 0080 0000 0080 df3e 033e 0000 0080
000001a0: 0000 0080 0000 0000 0000 0080 e850 f9be
000001b0: 0000 0000 0000 0080 0000 0000 ea5e 07be
000001c0: 0000 0000 0000 0000 0000 0000 0000 0080
000001d0: 0000 0080 0000 0000 0000 0000 0000 0080
000001e0: 0000 0080 0000 0080 0000 0000 0000 0080
000001f0: 0000 0080 0000 0080 0000 0080 0000 0000
00000200: 0000 0080 0000 0080 0000 0080 0000 0000
00000210: 0000 0080 0000 0080 0000 0080 0000 0000
00000220: 0000 0080 0000 0080 cc5e aebd 0000 0000
00000230: 0000 0080 0000 0080 0000 0000 0000 0000
00000240: 0000 0080 0e3c afbe 0000 0000 0000 0000
00000250: 0000 0000 0000 0000 0000 0000 0000 0080
00000260: 0000 0080 0000 0000 0000 0080 e15e c2be
00000270: 0000 0080 0000 0000 0000 0080 0000 0080
00000280: 0000 0080 0000 0080 0000 0080 0000 0080
00000290: 0000 0080 0000 0000 0000 0080 0000 0080
000002a0: 0000 0080 0000 0080 0000 0080 0000 0080
000002b0: 0000 0080 0000 0080 0000 0000 0000 0000
000002c0: 0000 0080 0000 0080 0000 0000 0000 0000
000002d0: 0000 0080 0000 0080 0000 0000 0000 0080
000002e0: 0000 0000 0000 0000 0000 0000 0000 0000
000002f0: 0000 0000 0000 0080 0000 0080 e447 f6be
00000300: 0000 0000 0000 0080 0000 0000 0000 0000
00000310: 0000 0080 0000 0080 0000 0080 0000 0080
00000320: 0000 0000 0000 0000 0000 0080 0000 0080
00000330: 0000 0080 0000 0080 0000 0080 0000 0080
00000340: 597c 00bf 0000 0080 0000 0080 0000 0000
00000350: 0000 0080 0000 0080 0000 0080 0000 0000
00000360: 0000 0000 0000 0080 0000 0000 0000 0080
00000370: 0000 0080 ce64 8ebe 0000 0000 0000 0080
00000380: 0000 0000 0000 0000 9636 683e 0000 0080
00000390: 0000 0000 84a7 cdbe ee59 a9be 0000 0000
000003a0: 0000 0080 0000 0080 ba53 14bf 0000 0080
000003b0: 5822 31be 0000 0080 0000 0080 ae73 11bf
000003c0: 0000 0080 0000 0080 713b 153f 0000 0080
000003d0: 0000 0080 0000 0080 0000 0000 0000 0080
000003e0: 0000 0000 0000 0080 0000 0000 0000 0000
000003f0: 0000 0080 0000 0080 b631 00bf 386b abbe
0.0 0.0 0.0 -0.0 -0.0 -0.0 0.0 -0.0
-0.0 -0.0 -0.0 -0.0 0.0 0.0 -0.0 0.0
0.0 -0.3867713 -0.0 0.0 0.12680864 -0.0 -0.0 0.0
-0.0 0.0 -0.6013194 0.0 0.0 -0.0 -0.0 -0.0
-0.5613001 -0.36773044 0.0 0.0 -0.0 -0.0 -0.0 -0.0
-0.0 -0.0 0.0 -0.0 -0.3858839 -0.0 -0.0 -0.0
0.0 0.0 -0.0 0.0 -0.0 -0.0 -0.0 -0.0
0.0 -0.0 -0.0 0.0 -0.0 -0.0 -0.38061687 0.0
0.0 -0.0 -0.0 0.0 0.0 -0.0 -0.0 0.0
0.0 -0.0 -0.0 -0.0 0.0 -0.47303417 0.0 -0.0
-0.0 0.0 -0.0 -0.52108586 -0.0 -0.0 -0.0 -0.0
0.0 0.0 -0.0 -0.57797116 0.0 -0.0 -0.57614803 -0.0
0.0 -0.0 -0.0 0.0 -0.0 -0.0 0.12816952 -0.0
-0.0 0.0 -0.0 -0.4869454 0.0 -0.0 0.0 -0.132198
0.0 0.0 0.0 -0.0 -0.0 0.0 0.0 -0.0
-0.0 -0.0 0.0 -0.0 -0.0 -0.0 -0.0 0.0
-0.0 -0.0 -0.0 0.0 -0.0 -0.0 -0.0 0.0
-0.0 -0.0 -0.08514175 0.0 -0.0 -0.0 0.0 0.0
-0.0 -0.34225506 0.0 0.0 0.0 0.0 0.0 -0.0
-0.0 0.0 -0.0 -0.37963012 -0.0 0.0 -0.0 -0.0
-0.0 -0.0 -0.0 -0.0 -0.0 0.0 -0.0 -0.0
-0.0 -0.0 -0.0 -0.0 -0.0 -0.0 0.0 0.0
-0.0 -0.0 0.0 0.0 -0.0 -0.0 0.0 -0.0
0.0 0.0 0.0 0.0 0.0 -0.0 -0.0 -0.48101723
0.0 -0.0 0.0 0.0 -0.0 -0.0 -0.0 -0.0
0.0 0.0 -0.0 -0.0 -0.0 -0.0 -0.0 -0.0
-0.5018974 -0.0 -0.0 0.0 -0.0 -0.0 -0.0 0.0
0.0 -0.0 0.0 -0.0 -0.0 -0.27811283 0.0 -0.0
0.0 0.0 0.22677073 -0.0 0.0 -0.40166867 -0.33076423 0.0
-0.0 -0.0 -0.57940257 -0.0 -0.17298257 -0.0 -0.0 -0.5681714
-0.0 -0.0 0.58293825 -0.0 -0.0 -0.0 0.0 -0.0
0.0 -0.0 0.0 0.0 -0.0 -0.0 -0.5007585 -0.3348024

6.weight f4 [64]
00000000: 01d4 813f 89fd bd3f 785b 8e3f 7359 813f
00000010: 7a8c 6a3f 6b5b aa3f eeb8 9a3f 8dbd 5c3f
00000020: f754 a03f 7e64 4e3f 2dd9 4d3f a977 a73f
00000030: ce8a 4f3f 9ad3 8c3f cb57 b13f 7593 963f
00000040: 0fd7 2e3f 03dc 9c3f ff57 553f d28f 593f
00000050: 0ed2 8a3f a7a6 8e3f 52a9 633f 1fc6 803f
00000060: 0b8c 4c3f ed48 703f 1e66 8d3f 7440 9d3f
00000070: 0cfd 853f d863 913f 9424 df3f 8da0 a73f
00000080: a021 763f 87b3 913f fe41 553f 8b0d 693f
00000090: 8a74 633f 562f 563f 9bf4 a73f 943b 7c3f
000000a0: 6259 973f ed75 8b3f 2fc1 913f 38c7 a43f
000000b0: 7876 603f 7e02 9c3f abe3 af3f be40 933f
000000c0: ed99 973f 522b b33f 5dcf a43f ea7e ae3f
000000d0: dcd9 7a3f a11c 523f 8853 7d3f c9e8 533f
000000e0: 37c1 a03f 2b9c 683f 6aab aa3f 8c8a a43f
000000f0: e8ef 7a3f 4824 993f 5b2e 843f 986d a83f
1.0142823 1.4842998 1.1121664 1.0105423 0.916206 1.3309149 1.2087686 0.8622673
1.2525929 0.8062209 0.8040951 1.3083392 0.81071174 1.1002076 1.3854917 1.176375
0.68296903 1.2254642 0.83337396 0.8498508 1.0845354 1.1144608 0.8893024 1.0060462
0.7990119 0.93861276 1.1046789 1.2285295 1.0467849 1.1358595 1.7433038 1.3095871
0.9614506 1.1382912 0.8330382 0.9103629 0.888497 0.8366598 1.3121523 0.9852841
1.1824152 1.0895363 1.138708 1.2873297 0.8768077 1.218826 1.3741354 1.1504133
1.184385 1.3997595 1.2875782 1.3632481 0.9798868 0.82074934 0.98955584 0.82777077
1.2558964 0.90863293 1.3333561 1.2854781 0.9802232 1.1964197 1.0326647 1.3158445

6.bias f4 [64]
00000000: 80f6 7ebf 1c7d ccbe b1b6 4dbe 8fb0 1d3e
00000010: 651a 42bf 758f d3be 38b3 39bf 73b7 32be
00000020: 625c 9fbe 5099 f2be 7dbf efbe 73dd 81be
00000030: 7c60 b1bd 7faf e8be b0f1 f2be d7a7 92be
00000040: b76f 5ebe 1e97 b0be a09f b4be 7b60 d4be
00000050: 1347 e2be f60b 88be aa7e 3abf c6bc eebe
00000060: 7698 f4be 438d e6bd 978d eebe ea70 efbe
00000070: 36b2 21be 2270 07bf bf3b 4c3e d206 dabe
00000080: e8ce 02bf 3bd5 e4be 417b 12bf 68a2 38bf
00000090: 2c5c 98be d8ec 25bf a879 fabe 8d40 74be
000000a0: ed96 d1bd c11e 7bbf c674 00bf 4219 d6be
000000b0: effb b43d 01b5 d6bd b720 06bd 9a4c 45bf
000000c0: cef4 0cbf 4767 f0be bfb4 3dbf b06b dbbe
000000d0: 0eaf c03d 5490 25bf 6b30 34bf 4465 073e
000000e0: 8f39 29bf 04bc b2bd 2274 d1bc 42ca c5be
000000f0: 6e70 2bbf 5026 09bf 6976 e5bd 6727 ac3d
-0.9959488 -0.399392 -0.20089222 0.15399383 -0.75821525 -0.41320387 -0.7253909 -0.17452793
-0.3112517 -0.47382593 -0.4682578 -0.25364265 -0.08660981 -0.45446393 -0.47450018 -0.28643677
-0.21722303 -0.34490293 -0.35278034 -0.4147986 -0.4419485 -0.26571625 -0.72849524 -0.46628398
-0.47772568 -0.11257412 -0.465924 -0.46765834 -0.15790638 -0.52905476 0.19944666 -0.42583328
-0.51096964 -0.44693932 -0.5721932 -0.7212281 -0.29757822 -0.6481452 -0.4892094 -0.23852749
-0.10233865 -0.980938 -0.5017818 -0.41816145 0.08837115 -0.104837425 -0.032746043 -0.7707001
-0.5506104 -0.46953794 -0.7410392 -0.42855597 0.09408389 -0.6467335 -0.7038638 0.13222224
-0.6610345 -0.087272674 -0.025568072 -0.38630873 -0.6696843 -0.53574085 -0.112042256 0.08405953

6.running_mean f4 [64]
00000000: 62e2 34c0 70c1 29c0 d5b5 353f bdeb 40c0
00000010: 880d 5ebf 9d5c 1cc0 4714 a0be 6470 663f
00000020: 0ec2 02c0 bd67 9dbf c4a2 22bf 79c4 d6bf
00000030: 2bd1 27c0 5c0e b63f f3af 5fc0 984b 5fbf
00000040: 2c7b 20c0 c1e4 99bf a2ca 933f 9c06 04c0
00000050: 9a24 28c0 a40a 06c0 4aa2 04bf 8355 92c0
00000060: 14e3 e43f e0de 20c0 185f ae3f 599b 0ac0
00000070: db63 983f b01d dc40 3bb0 14c0 3e18 dcbf
00000080: 1f60 a53e 6c6f 913e b93c 913e c54b cd3e
00000090: 43e7 9dbf 1adc 96bd 155e 4fc0 3f8d 02c0
000000a0: 8458 c3bf 1fa3 b9bf 3620 203f d8c8 bbbf
000000b0: 93e1 1640 1920 3dc0 ca53 3ebf 7466 7bc0
000000c0: 8a76 af3e 627a 15c0 4ef7 d7bf d98e b3bf
000000d0: f258 3abf b5ee 5fbe d00e 26be 1c62 0440
000000e0: 5974 fbbf 0dec 3f3f 5e4d 30c0 d38d c6bf
000000f0: 68e1 513d 1d15 9c3f 306c 64bf e0b0 e1bf
-2.8263173 -2.6524315 0.7098058 -3.0143883 -0.867394 -2.4431527 -0.3126547 0.90015244
-2.0430942 -1.2297283 -0.6352961 -1.6778709 -2.6221416 1.4223132 -3.495114 -0.8722472
-2.5075178 -1.2022935 1.1546214 -2.0629034 -2.627234 -2.0943995 -0.51810133 -4.5729384
1.7881799 -2.5136032 1.362277 -2.1657317 1.1905473 6.878624 -2.3232563 -1.7194898
0.32299897 0.2840532 0.2836664 0.4009687 -1.23362 -0.073662 -3.2401173 -2.039871
-1.5261388 -1.4502906 0.6254915 -1.4670668 2.357518 -2.955084 -0.743466 -3.9281282
0.34270126 -2.3355947 -1.6872346 -1.4027969 -0.7279197 -0.21868403 -0.16216588 2.0684881
-1.9644881 0.7496956 -2.754722 -1.5512031 0.051240355 1.2193943 -0.8922758 -1.7632103

6.running_var f4 [64]
00000000: 6825 c23f 646b 8a40 02e1 e63f 0167 5140
00000010: e34c 2740 117b 6a40 cef5 9c40 4434 2d40
00000020: 2f32 ae40 259e 3040 9c3d 2e40 2578 c740
00000030: 5295 1f40 d42d e440 d392 c440 dcf0 2f40
00000040: 45f5 3940 97c3 0741 c56e 1940 bf56 0d40
00000050: ffce 4940 2ebd da40 aec6 1540 0667 6e40
00000060: 7ce1 6240 8a27 5440 2cf1 8b40 fdc3 1e40
00000070: 8a71 9440 f579 c940 206c b840 8389 0441
00000080: 1e23 df3f bcc4 9040 fc51 b43f 51ae 0140
00000090: 6a02 5040 37a9 c53f 4372 9940 1113 6640
000000a0: 3670 3841 b9a5 ff3f 005b b940 05f9 0541
000000b0: 8733 0540 6b3b df40 2cb9 f440 5786 5140
000000c0: 5215 3940 0820 e140 c7d3 823f 67cb 9d40
000000d0: 60d0 0540 ff52 2c40 3dc4 823f df27 3340
000000e0: 69c8 6140 250a 0640 3b57 f740 91ab 6a40
000000f0: c29b ab3f a5a8 1a41 6bd6 9940 04e0 b340
1.5167665 4.325609 1.8037417 3.2719119 2.6140678 3.6637614 4.9050055 2.706315
5.443626 2.7596524 2.7225103 6.233416 2.4934888 7.1305943 6.142923 2.749076
2.905595 8.485251 2.3973858 2.2084196 3.153259 6.835593 2.3402514 3.725038
3.5450125 3.3149133 4.37319 2.4807122 4.6388597 6.2961373 5.763199 8.283572
1.7432592 4.5240154 1.408752 2.0262644 3.2501473 1.5442265 4.795198 3.5949137
11.527395 1.997245 5.7923584 8.373296 2.08127 6.976003 7.647604 3.2738245
2.8919263 7.03516 1.0220879 4.9310794 2.0908432 2.6925657 1.0216137 2.7993085
3.527857 2.0943692 7.7293983 3.6667216 1.3406909 9.666173 4.807424 5.6210957

9.weight f4 [64, 64, 3]
00000000: 0000 0080 0000 0080 0000 0000 0000 0000
00000010: 82fa 0a3f 0000 0000 0000 0000 0000 0000
00000020: 0000 0000 0000 0000 a0c2 1b3f 0000 0000
00000030: 0000 0080 6feb fa3e 0000 0000 0000 0080
00000040: 0000 0000 0000 0080 0000 0000 0000 0080
00000050: 0fca 1cbf 0000 0080 0000 0080 0000 0000
00000060: 0000 0080 0000 0080 0000 0080 0000 0000
00000070: 41ee 1c3f 0000 0080 0000 0000 186f 153f
00000080: 0000 0080 0000 0000 0000 0000 0000 0000
00000090: 0000 0080 0000 0000 0000 0000 0000 0000
000000a0: 0000 0080 0000 0080 0000 0000 0000 0000
000000b0: 0000 0000 0000 0000 0000 0000 0000 0080
000000c0: 0000 0080 0000 0000 0000 0000 0000 0080
000000d0: 0000 0000 a277 ba3e 0000 0080 0000 0000
000000e0: 0000 0080 0000 0080 0000 0080 c56a eebe
000000f0: 0000 0080 0000 0000 23d6 9d3e 0000 0000
00000100: 0000 0000 5c12 033f 0000 0080 0000 0000
00000110: 0000 0080 0000 0080 0000 0000 0000 0080
00000120: 0000 0080 0000 0000 0000 0000 0000 0000
00000130: 0000 0000 0000 0000 0000 0000 0000 0080
00000140: 0000 0000 0000 0080 5bf2 9cbe 8f40 9ebe
00000150: 0000 0080 0000 0080 0000 0080 0000 0000
00000160: 0000 0000 0000 0000 0000 0080 0000 0000
00000170: 0000 0080 0000 0000 0000 0080 0000 0000
00000180: 0000 0080 0000 0000 0000 0000 0000 0000
00000190: 0000 0000 0000 0080 0000 0000 0000 0000
000001a0: 0000 0000 0000 0080 0000 0000 0000 0000
000001b0: 0000 0000 0000 0000 0000 0080 0000 0000
000001c0: 0000 0000 0000 0080 0000 0000 0000 0080
000001d0: 0000 0080 0000 0000 0000 0000 0000 0080
000001e0: 0000 0080 0000 0080 0000 0080 0000 0080
000001f0: 0000 0000 0000 0080 0000 0080 9818 16bf
00000200: 0000 0080 3c4e eabe ff71 b4be 0000 0080
00000210: 0000 0080 0000 0000 0000 0080 f09d 18bf
00000220: 5861 19bf 679c 00bf 0000 0080 a802 dbbe
00000230: 0000 0000 0000 0000 0000 0080 0000 0080
00000240: 0000 0000 0000 0000 0000 0080 0000 0000
00000250: 0000 0000 0000 0000 0000 0080 0000 0000
00000260: 0000 0000 0000 0080 39c5 d4be 54e4 dabe
00000270: 0000 0080 0000 0000 83a6 8f3e 0000 0000
00000280: 0000 0080 0000 0000 0000 0000 0000 0080
00000290: 0000 0000 0000 0080 0000 0080 0000 0080
000002a0: 0000 0000 0000 0080 0000 0000 0000 0080
000002b0: 0000 0000 0000 0080 0000 0000 0000 0000
000002c0: 0000 0000 0000 0080 0000 0080 0000 0080
000002d0: 0000 0000 0000 0080 0000 0000 0000 0080
000002e0: 0000 0000 0000 0080 0000 0000 0000 0080
000002f0: 8c01 fc3e f74a 9fbe 0000 0080 0000 0080
00000300: 0000 0000 0000 0080 84c0 19bf 0000 0000
00000310: 0000 0080 0000 0080 0000 0080 0000 0000
00000320: 0000 0080 0000 0000 0000 0000 0000 0080
00000330: 0000 0080 0000 0000 0000 0080 0000 0080
00000340: 0000 0000 0000 0000 613e 7b3e aac8 d2be
00000350: 0000 0080 0000 0000 0000 0080 0000 0080
00000360: 0000 0080 0000 0080 0000 0080 0000 0080
00000370: 0000 0000 0000 0080 0000 0080 2c78 fb3e
00000380: 0000 0080 0000 0000 0000 0080 0000 0080
00000390: 0000 0080 894d cc3e 0000 0080 0000 0080
000003a0: 0000 0080 0000 0000 0000 0080 0000 0080
000003b0: 0000 0000 0000 0000 0000 0000 0000 0080
000003c0: 0000 0080 9094 163f 0000 0080 0000 0080
000003d0: 49ac 9fbe 0000 0000 b3e6 d1be 0000 0000
000003e0: 0000 0000 0000 0080 0000 0000 0000 0080
000003f0: 0000 0080 0000 0000 0000 0080 0000 0080
-0.0 -0.0 0.0 0.0 0.54288495 0.0 0.0 0.0
0.0 0.0 0.6084385 0.0 -0.0 0.49007747 0.0 -0.0
0.0 -0.0 0.0 -0.0 -0.61245817 -0.0 -0.0 0.0
-0.0 -0.0 -0.0 0.0 0.61301047 -0.0 0.0 0.5837264
-0.0 0.0 0.0 0.0 -0.0 0.0 0.0 0.0
-0.0 -0.0 0.0 0.0 0.0 0.0 0.0 -0.0
-0.0 0.0 0.0 -0.0 0.0 0.36419398 -0.0 0.0
-0.0 -0.0 -0.0 -0.46565834 -0.0 0.0 0.30827436 0.0
0.0 0.5119989 -0.0 0.0 -0.0 -0.0 0.0 -0.0
-0.0 0.0 0.0 0.0 0.0 0.0 0.0 -0.0
0.0 -0.0 -0.30653653 -0.3090863 -0.0 -0.0 -0.0 0.0
0.0 0.0 -0.0 0.0 -0.0 0.0 -0.0 0.0
-0.0 0.0 0.0 0.0 0.0 -0.0 0.0 0.0
0.0 -0.0 0.0 0.0 0.0 0.0 -0.0 0.0
0.0 -0.0 0.0 -0.0 -0.0 0.0 0.0 -0.0
-0.0 -0.0 -0.0 -0.0 0.0 -0.0 -0.0 -0.5863128
-0.0 -0.45762813 -0.35243222 -0.0 -0.0 0.0 -0.0 -0.59615993
-0.5991416 -0.5023865 -0.0 -0.42775464 0.0 0.0 -0.0 -0.0
0.0 0.0 -0.0 0.0 0.0 0.0 -0.0 0.0
0.0 -0.0 -0.4155672 -0.42752326 -0.0 0.0 0.28056726 0.0
-0.0 0.0 0.0 -0.0 0.0 -0.0 -0.0 -0.0
0.0 -0.0 0.0 -0.0 0.0 -0.0 0.0 0.0
0.0 -0.0 -0.0 -0.0 0.0 -0.0 0.0 -0.0
0.0 -0.0 0.0 -0.0 0.4921993 -0.3111188 -0.0 -0.0
0.0 -0.0 -0.6005938 0.0 -0.0 -0.0 -0.0 0.0
-0.0 0.0 0.0 -0.0 -0.0 0.0 -0.0 -0.0
0.0 0.0 0.24535514 -0.4116872 -0.0 0.0 -0.0 -0.0
-0.0 -0.0 -0.0 -0.0 0.0 -0.0 -0.0 0.4911512
-0.0 0.0 -0.0 -0.0 -0.0 0.39902905 -0.0 -0.0
-0.0 0.0 -0.0 -0.0 0.0 0.0 0.0 -0.0
-0.0 0.5882044 -0.0 -0.0 -0.3118613 0.0 -0.40996322 0.0
0.0 -0.0 0.0 -0.0 -0.0 0.0 -0.0 -0.0

10.weight f4 [64]
00000000: 02f7 8c3f 9358 423f 3e7f a63f f09a 423f
00000010: 41f4 773f ebca 923f 53d7 9c3f a03b 583f
00000020: a81a e63e 88e2 923f 76b7 2e3f 1d91 373f
00000030: 9ecf 073f 30cc 903f 74c6 253f aa8b 063f
00000040: c2a8 2e3f a345 263f 3676 353f d7c3 f43e
00000050: 68e6 a63f 3bef 0c3f a95e 413f f39e 843f
00000060: d1aa 023f 555a 523f 9758 673f a66e b93f
00000070: 2252 c93f 9b28 613f 0138 493f 2bd6 7d3f
00000080: f88b 533f 3f09 173f 0643 763f 3510 6b3f
00000090: ec27 963f 33eb af3f f5b9 283f 5550 693f
000000a0: b0cb 6d3f ec06 583f 397d 9a3f 77cc 893f
000000b0: f1d5 803f 4c65 b93f 8565 413f 41ed 8a3f
000000c0: bf29 4c3f b8bb 243f bc6b 023f d240 be3f
000000d0: 7645 973f 6437 643f cbfc ff3e eb3a 883f
000000e0: 3700 6f3f c8cd 133f 69fa 6c3f 8a20 b63f
000000f0: 4b1c 503f 4801 1a3f 6596 993f 74ca 493f
1.1012881 0.75916404 1.3007581 0.76017666 0.96857077 1.1468176 1.2253212 0.8446598
0.44942212 1.1475382 0.6824869 0.717058 0.53051174 1.1312313 0.6475594 0.5255686
0.68226254 0.6495001 0.708835 0.47805664 1.3039064 0.55052537 0.75535065 1.0361007
0.51041895 0.82169086 0.9036955 1.4486892 1.572819 0.87952584 0.7860108 0.9915492
0.8263545 0.58998483 0.9619602 0.91821605 1.1730933 1.3743652 0.6590875 0.911382
0.9288893 0.8438556 1.2069465 1.0765523 1.006529 1.4484038 0.7554553 1.0853654
0.797512 0.64348936 0.5094564 1.4863532 1.1818073 0.8914702 0.49997553 1.064298
0.933597 0.5773587 0.92569596 1.422868 0.8129317 0.60158205 1.1999022 0.78824544

10.bias f4 [64]
00000000: d417 69bf db72 dc3d 41ce 5dbf 6cfd a5be
00000010: b5b8 63bf 3dd7 4abf 834d 92bf 43d5 0cbf
00000020: b344 3ebe 08b1 a9bf 3a59 38be 83be 92be
00000030: fa4a 9ebe c856 93bf 140d 50be 5471 b5be
00000040: 130d 813c fe15 cabe ce51 15bf 1335 92be
00000050: d5e2 85bf f1a4 91bb fdd8 cebe 045f 1cbf
00000060: d294 15be df14 65be c3d1 fdbe 4cf8 3fbf
00000070: ca90 79bf 3a09 1a3e 4bb6 443e 1239 34bf
00000080: 8c40 e5be 8afc c9be 5523 eebe 7c3e 18bf
00000090: d108 81bf bcc9 93bf e7cc 1bbf fee5 d9be
000000a0: 5ff6 15bf 6c6a 63be 287e 51bf 3736 90be
000000b0: 482a a6be be35 94bf 1272 1bbf c698 f6be
000000c0: 82e5 60be dd86 0abf 50a7 66be 7c5f 97bf
000000d0: 7e77 babe 0a38 a0be 5d43 32be f205 4bbe
000000e0: e8df 17bf 0cbe c5be aef3 5cbe 0e60 8bbf
000000f0: 6391 07bf 236f adbe 805e 8cbf 3b07 13bf
-0.91051984 0.107640944 -0.86642843 -0.32419908 -0.88953716 -0.7923468 -1.1429905 -0.5501291
-0.18580894 -1.3257151 -0.18002787 -0.28660974 -0.30916578 -1.1510859 -0.20317489 -0.35438025
0.015753305 -0.39469904 -0.5832795 -0.28556117 -1.0459849 -0.0044447114 -0.40399924 -0.6108248
-0.14607552 -0.22371243 -0.49574098 -0.74988246 -0.97486556 0.15042582 0.19210164 -0.7039958
-0.44775808 -0.39450485 -0.4651133 -0.59470344 -1.0080816 -1.154594 -0.6085953 -0.42558283
-0.5857906 -0.22208565 -0.81833124 -0.28166363 -0.32454133 -1.1578901 -0.6072093 -0.48163432
-0.2196255 -0.54112035 -0.22524762 -1.1826015 -0.3641929 -0.31292754 -0.1740851 -0.19826487
-0.5932603 -0.38621557 -0.21577331 -1.0888689 -0.5295622 -0.33873853 -1.0966339 -0.5743291

10.running_mean f4 [64]
00000000: eab8 54bf b030 103f af41 e4be 8cd3 c0bf
00000010: a77e 3540 481b 06c0 b0fc 4ac0 cd9c 14bf
00000020: c07c 83be 75ab 85bf 597a 7f3b db0f adbf
00000030: 7130 e6be 2027 c1bf 26d5 e1bf 9457 29bf
00000040: b921 9a3f be86 31bf 74a0 e03f 6d45 b03e
00000050: d53f dabf ea6a 6abf 3c0e 89bf 915f acbf
00000060: b088 75bf c9b9 08c0 d652 aabf c29d 03c0
00000070: bbea a8bf 727f 3abf a947 d2bf 4ee0 efbe
00000080: 9490 0dc0 8848 b4bf d483 0ec0 df41 26c0
00000090: 6de0 78bf a74c c8be 5700 1ebf bf15 adbf
000000a0: fc7d aebf e6fe 0d40 5551 07c0 460e 5e3f
000000b0: 088c aa3d 3851 55bf d285 86bf c511 01c0
000000c0: b1fc 873e 7be0 e2be 48be 51bf 591c f7bf
000000d0: 1183 c6bf 4744 0ac0 eb59 5bbe e5b4 cfbf
000000e0: fe01 0740 e4b1 3d3f 9d51 91bf e9fa 02c0
000000f0: 743c 373e b992 103e 949c 4cc0 552e a0bf
-0.83094656 0.5632429 -0.44581363 -1.5064559 2.8358552 -2.095415 -3.1716728 -0.5805176
-0.25681114 -1.044295 0.0038982837 -1.3520464 -0.44958833 -1.5090065 -1.7643173 -0.6614926
1.2041541 -0.69346225 1.7548966 0.34427968 -1.705073 -0.9156939 -1.0707469 -1.3466665
-0.95911694 -2.1363394 -1.330653 -2.0565038 -1.3196634 -0.72850716 -1.6428119 -0.46850818
-2.2119493 -1.4084635 -2.2267962 -2.5977705 -0.97217447 -0.3912098 -0.6171927 -1.3522261
-1.3632197 2.2186828 -2.114339 0.8674053 0.0832749 -0.83327055 -1.0509589 -2.0167096
0.26559976 -0.4431189 -0.8193097 -1.9305526 -1.5508748 -2.1604173 -0.2142102 -1.622708
2.1094966 0.74099565 -1.1353031 -2.0465643 0.17894155 0.1411847 -3.1970568 -1.251414

10.running_var f4 [64]
00000000: f539 9340 cb75 963f 41e3 c640 1553 f53f
00000010: 6778 0340 d42b 3040 24ec 2140 6244 0440
00000020: 7c64 433f 15e6 813f bca6 883f 386d ad3f
00000030: a06c 173f 6608 c83f 259e 4b40 0a47 553f
00000040: cf7a ae3f 0fab c73f 2ffa 0840 05c9 7f3f
00000050: 6f42 bf40 7c0d 1740 ab8f d53f a44f 6240
00000060: 983a 823f e4a6 1b40 1c64 933f b417 0640
00000070: 1483 0940 7d1f 7b40 e14e ff3f ae72 8040
00000080: 9eae 9b3f 786f 813f da83 9240 3f71 1640
00000090: ff29 8d40 cbd7 ac40 de82 833f 40a9 fb3f
000000a0: 8cac d83f 526a 6a40 6280 3b40 5815 1a40
000000b0: 9813 eb3f 1845 2741 ec2e 8b3f f395 0640
000000c0: bca2 0940 2f83 873f 3a71 603f 7d08 e740
000000d0: 63b1 0540 f20a ac40 85d4 613f 1fdb 8840
000000e0: d8d3 7c40 c662 813f b424 8a40 799a ce40
000000f0: 649a a13f 73d5 873f 07e0 9b3f 0af4 1140
4.600825 1.1754698 6.215241 1.916598 2.0542238 2.752675 2.5300379 2.0666738
0.763252 1.014834 1.0675883 1.3548956 0.59150124 1.5627563 3.1815274 0.8331152
1.3631228 1.5599078 2.14027 0.99916106 5.9768596 2.360198 1.6684469 3.5361109
1.0174131 2.4320612 1.1514926 2.0951967 2.1486254 3.923797 1.9945947 4.013999
1.2162664 1.0112143 4.578595 2.350662 4.4113765 5.401342 1.0274312 1.9661026
1.6927657 3.6627393 2.9297109 2.4075527 1.8365355 10.454369 1.0873694 2.1029022
2.1505575 1.0586909 0.8767277 7.219786 2.0889518 5.376336 0.88214904 4.276748
3.95043 1.0108268 4.3169804 6.4563565 1.2625241 1.0612015 1.2177743 2.28052

13.weight f4 [64, 64, 3]
00000000: 0000 0080 0000 0080 0000 0000 0000 0000
00000010: 0000 0000 0000 0080 0000 0000 fe24 38bf
00000020: 0000 0000 0000 0080 0000 0080 0000 0080
00000030: 0000 0080 0000 0080 0000 0000 0000 0000
00000040: 0000 0080 0000 0080 0000 0000 0000 0080
00000050: 0000 0080 0000 0000 0000 0000 0000 0000
00000060: 0000 0000 0000 0080 0000 0000 0000 0000
00000070: 0000 0000 0000 0080 0000 0000 0000 0080
00000080: 0000 0080 0000 0080 0000 0080 0000 0080
00000090: 0000 0000 0000 0080 0000 0000 0000 0000
000000a0: 0000 0080 0000 0000 0000 0000 0000 0080
000000b0: 0000 0000 0000 0080 0000 0000 0000 0080
000000c0: 0000 0000 0000 0000 0000 0000 0000 0000
000000d0: 0000 0080 0000 0000 0000 0080 0000 0080
000000e0: 0000 0080 0000 0000 0000 0000 0000 0080
000000f0: 0000 0000 3f71 34bf 0000 0000 0000 0080
00000100: 0000 0080 0000 0000 0000 0080 0000 0000
00000110: 0000 0080 0000 0000 0000 0080 0000 0000
00000120: 0000 0080 0000 0080 0000 0080 0000 0080
00000130: 0000 0080 0000 0080 0000 0080 0000 0000
00000140: 0000 0080 0000 0000 0000 0000 0000 0080
00000150: 0000 0000 0000 0000 0000 0000 0000 0000
00000160: 0000 0000 0000 0080 0000 0080 0000 0000
00000170: 0000 0080 0000 0080 0000 0080 0000 0080
00000180: 0000 0080 0000 0000 0000 0080 0000 0000
00000190: 0000 0000 0000 0080 0000 0000 0000 0080
000001a0: 0000 0080 0000 0000 0000 0000 0000 0000
000001b0: 0000 0080 0000 0080 0000 0080 0000 0080
000001c0: 0000 0080 0000 0000 0000 0000 0000 0000
000001d0: 0000 0080 0000 0080 0000 0080 0000 0080
000001e0: 0000 0000 0000 0000 0000 0000 0000 0080
000001f0: 0000 0080 0000 0000 0000 0000 0000 0000
00000200: 0000 0080 0000 0080 0000 0080 0000 0080
00000210: 0000 0080 6462 b83e 0000 0080 0000 0000
00000220: 8b19 19bf 0000 0000 0000 0080 0000 0000
00000230: 0000 0080 0000 0080 0000 0000 0000 0080
00000240: 0000 0000 0000 0080 0000 0000 0000 0080
00000250: 0000 0080 0000 0000 0000 0080 0000 0000
00000260: 0000 0000 0000 0080 fb31 0ebf 0000 0000
00000270: 0000 0000 0000 0000 0000 0080 0000 0000
00000280: 0000 0080 0000 0000 0000 0080 0000 0080
00000290: 0000 0000 0000 0080 0000 0080 0000 0000
000002a0: 0000 0000 0000 0000 0000 0000 0000 0080
000002b0: 0000 0080 0000 0000 0000 0000 0000 0080
000002c0: 0000 0080 0000 0000 aff2 32bf 0000 0000
000002d0: 0000 0000 0000 0080 0000 0080 0000 0000
000002e0: 0000 0000 0000 0080 0000 0000 0000 0080
000002f0: 0000 0000 0000 0080 0000 0000 0000 0000
00000300: 0000 0080 0000 0000 0000 0080 0000 0080
00000310: 0000 0080 0000 0080 0000 0000 0000 0000
00000320: 0000 0000 0000 0080 16e4 18bf 0000 0080
00000330: 0000 0080 0000 0080 0000 0080 a3be e1be
00000340: c476 29bf 0000 0080 0000 0080 7eae 2fbf
00000350: e353 42be 0000 0000 0000 0000 0000 0000
00000360: 0000 0000 0000 0000 0000 0000 0000 0000
00000370: 0000 0080 0000 0080 0000 0000 4f86 b83e
00000380: 0000 0080 0000 0080 0000 0000 0000 0000
00000390: 0000 0080 0000 0000 0000 0000 0000 0000
000003a0: 0000 0080 0000 0080 0000 0000 0000 0000
000003b0: 0000 0000 0000 0000 0000 0000 0000 0080
000003c0: 8b7a ec3e 0000 0000 0000 0000 0000 0000
000003d0: 0000 0000 0000 0000 0000 0000 0000 0000
000003e0: ce4d 2d3f 0000 0000 0000 0000 0000 0000
000003f0: 0000 0080 0000 0000 0000 0080 0000 0000
-0.0 -0.0 0.0 0.0 0.0 -0.0 0.0 -0.71931446
0.0 -0.0 -0.0 -0.0 -0.0 -0.0 0.0 0.0
-0.0 -0.0 0.0 -0.0 -0.0 0.0 0.0 0.0
0.0 -0.0 0.0 0.0 0.0 -0.0 0.0 -0.0
-0.0 -0.0 -0.0 -0.0 0.0 -0.0 0.0 0.0
-0.0 0.0 0.0 -0.0 0.0 -0.0 0.0 -0.0
0.0 0.0 0.0 0.0 -0.0 0.0 -0.0 -0.0
-0.0 0.0 0.0 -0.0 0.0 -0.704853 0.0 -0.0
-0.0 0.0 -0.0 0.0 -0.0 0.0 -0.0 0.0
-0.0 -0.0 -0.0 -0.0 -0.0 -0.0 -0.0 0.0
-0.0 0.0 0.0 -0.0 0.0 0.0 0.0 0.0
0.0 -0.0 -0.0 0.0 -0.0 -0.0 -0.0 -0.0
-0.0 0.0 -0.0 0.0 0.0 -0.0 0.0 -0.0
-0.0 0.0 0.0 0.0 -0.0 -0.0 -0.0 -0.0
-0.0 0.0 0.0 0.0 -0.0 -0.0 -0.0 -0.0
0.0 0.0 0.0 -0.0 -0.0 0.0 0.0 0.0
-0.0 -0.0 -0.0 -0.0 -0.0 0.36012566 -0.0 0.0
-0.598046 0.0 -0.0 0.0 -0.0 -0.0 0.0 -0.0
0.0 -0.0 0.0 -0.0 -0.0 0.0 -0.0 0.0
0.0 -0.0 -0.55545014 0.0 0.0 0.0 -0.0 0.0
-0.0 0.0 -0.0 -0.0 0.0 -0.0 -0.0 0.0
0.0 0.0 0.0 -0.0 -0.0 0.0 0.0 -0.0
-0.0 0.0 -0.69901556 0.0 0.0 -0.0 -0.0 0.0
0.0 -0.0 0.0 -0.0 0.0 -0.0 0.0 0.0
-0.0 0.0 -0.0 -0.0 -0.0 -0.0 0.0 0.0
0.0 -0.0 -0.5972303 -0.0 -0.0 -0.0 -0.0 -0.44090757
-0.66196847 -0.0 -0.0 -0.6862563 -0.18977313 0.0 0.0 0.0
0.0 0.0 0.0 0.0 -0.0 -0.0 0.0 0.3603997
-0.0 -0.0 0.0 0.0 -0.0 0.0 0.0 0.0
-0.0 -0.0 0.0 0.0 0.0 0.0 0.0 -0.0
0.46187243 0.0 0.0 0.0 0.0 0.0 0.0 0.0
0.67696846 0.0 0.0 0.0 -0.0 0.0 -0.0 0.0

14.weight f4 [64]
00000000: 4d5c e43f d3ca a53f e646 783f cc42 a83f
00000010: dbc3 633f 30d7 8b3f f4de 163f 0752 6e3f
00000020: 8f7f 633f 2da1 693f a126 673f 6ef9 783f
00000030: 1b14 2f3f 7afc 5a3f a91c 793f fc9d 503f
00000040: ea9e 333f 950d 143f 5b3a b93f b954 2a3f
00000050: 6e6e 443f c22f 8c3f ea14 173f 4b97 833f
00000060: c647 593f d3b0 4c3f 0e65 6b3f 6b35 d73f
00000070: c696 553f 8fb7 283f 7c3d 1a3f ae53 a33f
00000080: 62d0 bf3f 3b7c 543f 0e27 683f 2ed8 cf3f
00000090: a8b9 6e3f c364 b83f 3e5a b93f 24c8 7a3f
000000a0: ee42 1d3f 4f23 443f acc2 373f ffde 1c3f
000000b0: 5f23 5c3f 06b2 453f 3913 1a3f ab93 6a3f
000000c0: c2c3 313f 7339 933f b474 273f cd25 4d3f
000000d0: 7f39 7d3f f5ac 2c3f d256 333f 4854 5b3f
000000e0: 2c06 793f cd84 3b3f 5701 5a3f 7c0b 2d3f
000000f0: 3a89 1a3f 2340 1c3f d8d8 943f 6a84 2a3f
1.7840668 1.2952522 0.9698318 1.3145385 0.88970727 1.0925045 0.5893395 0.93093914
0.88866514 0.9126156 0.9029332 0.972556 0.68390054 0.855415 0.97309357 0.81491065
0.7016436 0.57833225 1.4470934 0.66535527 0.76731 1.0952075 0.5901629 1.0280546
0.8487514 0.7995731 0.9195107 1.6813177 0.83433187 0.6590509 0.6025007 1.2759912
1.4985468 0.8300206 0.9068459 1.6237848 0.9325204 1.440575 1.4480665 0.9796164
0.6143025 0.76616377 0.7178142 0.61277765 0.8599147 0.7722477 0.6018558 0.91631573
0.6943933 1.1501907 0.6541245 0.80135804 0.9891586 0.6745141 0.7005435 0.8567548
0.9727504 0.7324951 0.85158294 0.6759565 0.6036564 0.61035365 1.1628675 0.666083

14.bias f4 [64]
00000000: 95e3 aabf 4f86 5cbf 2e59 d7be 064e 95bd
00000010: 6d0e 3cbf 17d6 50be 81e2 533d c6d1 95bf
00000020: bef3 32be 03d4 dabd 54da 08bf 3960 7abf
00000030: 70ac bebe f494 c8be 8a81 1bbf 4a07 24bf
00000040: 96a0 2abe 7213 9ebd f160 a0bf ddbf 5dbe
00000050: 448c b7be d45e 84bf d65c a6be 9604 f2be
00000060: 28d8 b8be e299 b3bf 0634 8dbf 14c7 2fbf
00000070: 9e61 cabd 13e6 92be 961b 3fbf 9623 4abe
00000080: 4ed1 34bf 65f5 adbe c6e3 2cbf b96f 41bf
00000090: b6ba 00bf 9128 a9bf 5ba7 77bf b1f2 83bf
000000a0: f1a3 23be cff1 2ebe 0a9b 00bf fa70 c0be
000000b0: 210d 91bf 1602 55bd 24aa 09bf c293 98be
000000c0: db46 3c3e aa70 a0be 134f 6ebe 3a53 20bf
000000d0: 6280 c8be 6d72 34be dafc 25bd cfdb 9a3d
000000e0: 2a63 ffbe 87dd 28bf 9f8c 2cbe 0d05 b53c
000000f0: d0d2 6d3c eef6 ea3d 4880 2abf 6ac9 16be
-1.3350703 -0.8614244 -0.42060226 -0.072902724 -0.7345951 -0.20394169 0.051729683 -1.1704643
-0.17475793 -0.10684969 -0.5345814 -0.97803074 -0.37240934 -0.39176142 -0.60744536 -0.6407362
-0.16662821 -0.07718553 -1.2529584 -0.21655221 -0.35849202 -1.0341439 -0.32492703 -0.47269124
-0.36102414 -1.4031336 -1.1031501 -0.68663144 -0.098819 -0.28691158 -0.7465147 -0.19740137
-0.70631874 -0.33976284 -0.67535055 -0.755611 -0.502849 -1.3215505 -0.9673974 -1.0308439
-0.15980507 -0.1708443 -0.5023657 -0.37586194 -1.1332132 -0.052003942 -0.5377524 -0.2980023
0.18386404 -0.31335956 -0.23272352 -0.62626994 -0.39160448 -0.17621775 -0.04052434 0.075614564
-0.49880344 -0.65963024 -0.16850518 0.022097135 0.014515594 0.11472879 -0.6660199 -0.14725271

14.running_mean f4 [64]
00000000: a0f2 bebe 07fb ebbf ee44 3b3e ad3e e83f
00000010: 250d 97be 4faf 1fbf 22ec 9dbd d972 843f
00000020: 56b3 e2bf bbe8 1fbf 88ce 2c3f 0644 31bf
00000030: bc0c 9e3e bc02 11be 5384 aebf 7c7f 35bf
00000040: c798 5c3d 7d9f 763e 5f3c d33d 86c9 603e
00000050: 63e0 dabe 6b58 34be 985d b9bd 11a1 4f3f
00000060: 5941 883e 0e7d 093e 701c e53e ede3 1cbe
00000070: 3fab 293f 5c31 1f3e 9185 c93d 8d81 933e
00000080: 8d87 b3bf c708 b93f 43e7 92be e7da a5be
00000090: 5b6d 9fbf d303 7bbe 95c0 a4bf 454a c5bf
000000a0: 7ef1 343f a6c5 a6be 9ac3 07bf a036 afbc
000000b0: 6d51 983f 58ae 9fbe 892d 563f 5335 2ebf
000000c0: 1ed1 b63e b517 e7bf e855 ff3e cc1d 1abf
000000d0: 3b83 62bf 645e 373e d9d3 553e ae4e 70be
000000e0: 7391 52bf c442 f8be 379b 2cbf 8b99 063f
000000f0: c68e b4bf 9bba c13f f497 95bf af73 193e
-0.37294483 -1.8435982 0.18288013 1.8144127 -0.29502216 -0.62376875 -0.077110544 1.0347549
-1.7710979 -0.62464494 0.6750264 -0.6924442 0.3086909 -0.141612 -1.3634132 -0.7089765
0.053856637 0.24084277 0.10314249 0.21951875 -0.42749318 -0.17611854 -0.09051055 0.8110514
0.26612356 0.13426611 0.4474826 -0.15321322 0.66276926 0.15546173 0.09839929 0.28809777
-1.4025742 1.4455804 -0.28692064 -0.32393572 -1.2455248 -0.24513178 -1.2871271 -1.541329
0.7068099 -0.3257267 -0.5303284 -0.021388352 1.1899849 -0.311877 0.8366323 -0.68050116
0.3570642 -1.805411 0.4987023 -0.60201716 -0.8848149 0.17907101 0.20881595 -0.23467514
-0.8225319 -0.48488438 -0.6742434 0.5257804 -1.4106071 1.5135072 -1.1686997 0.14985536

14.running_var f4 [64]
00000000: fa18 673e 764a 3640 ca15 113f 11ef 0540
00000010: 0f12 d33e a38c a13f 8516 133f 1003 813f
00000020: 3fe7 e73e bc1a 1640 fec9 8b3f fd6d ee3e
00000030: bb7d a03f 87f5 0d40 8869 0d3f acc6 f63e
00000040: b4f4 2d3f f45c 163f 9461 cc3e 104c 883f
00000050: f407 0240 7ca8 2a3e 0f35 163f aeed ff3f
00000060: ba9f 8e3f 921b 033e d03f a03e 68b8 8f3e
00000070: de65 0f3f 527b 363f 1bdd e23d e49b 6040
00000080: 4401 113f d211 933f 8228 da3e 3f25 4a3f
00000090: 3c5f e83e e4c2 4c3e b5ce 553f 1e2b 143f
000000a0: 4a09 6a3f f740 643f 101d 4f3f 62b3 cd3e
000000b0: b62c 853f 8a01 fe3e f3d6 003f bbdd 8d3f
000000c0: 0c17 553f 97af ea3e 6a0b 313f e17c 243f
000000d0: 4fbe 2340 c34d 5b3f d7e2 863f 4095 143f
000000e0: 8a02 523f 4d28 233f 1ab7 e93e 7490 b63e
000000f0: 412d 123f eeb3 273f 8db0 de3e 3038 0f40
0.22568122 2.8482947 0.5667387 2.0927165 0.41224715 1.2621044 0.5745624 1.007906
0.45293614 2.3453817 1.0921018 0.4656829 1.253837 2.2181108 0.5523915 0.4819845
0.6795151 0.58735585 0.39918196 1.0648212 2.0317354 0.16665834 0.5867471 1.9994409
1.1142495 0.12803486 0.31298685 0.28070378 0.5601481 0.7128192 0.11077329 3.5095148
0.56642556 1.1489813 0.4260903 0.78963083 0.45385158 0.1999622 0.83518535 0.5787829
0.91420424 0.8916163 0.8090372 0.4017592 1.040427 0.4961055 0.50327986 1.1083292
0.8323829 0.4583709 0.6915804 0.6425305 2.5584905 0.8566553 1.0537976 0.5804024
0.82035124 0.6373337 0.45647508 0.35657084 0.571003 0.65508926 0.43494073 2.2378044

17.weight f4 [64, 64, 3]
00000000: 0000 0080 0000 0080 0000 0080 0000 0000
00000010: 0000 0080 0000 0000 0000 0000 0000 0080
00000020: 0000 0080 0000 0080 0000 0000 0000 0080
00000030: 0000 0000 f54e eebe 0000 0080 0000 0000
00000040: 0000 0000 0000 0000 0000 0080 0000 0000
00000050: 0000 0000 0000 0080 0000 0080 0000 0000
00000060: 0000 0000 0000 0000 0000 0000 0000 0000
00000070: ebc6 36bf 0000 0000 0000 0080 0000 0000
00000080: 0000 0000 0000 0080 d322 e0be 0000 0000
00000090: 0000 0080 0000 0080 0000 0080 0000 0000
000000a0: 0000 0000 0000 0080 0000 0080 0000 0000
000000b0: 0000 0000 0000 0000 0000 0000 0000 0000
000000c0: 0000 0080 0000 0080 0000 0080 0000 0000
000000d0: 0000 0000 0000 0000 0000 0000 0000 0000
000000e0: 0000 0000 0000 0000 d4cd e2be 0000 0000
000000f0: 0000 0080 0000 0000 0000 0000 0000 0000
00000100: 487a 84be 0000 0080 0000 0000 0000 0080
00000110: 0000 0080 0000 0080 0000 0000 0000 0080
00000120: 0000 0080 0000 0000 baf9 2e3f 0000 0080
00000130: d10d 0b3f 0000 0000 0000 0080 6554 b83e
00000140: 0000 0000 0000 0080 0000 0080 0000 0080
00000150: 0000 0080 0000 0000 0000 0000 0000 0000
00000160: 0000 0000 0000 0080 0000 0080 0000 0000
00000170: 0000 0080 0000 0080 0000 0080 0000 0080
00000180: 0000 0080 0000 0080 0000 0080 0000 0080
00000190: 0000 0000 0000 0080 0000 0000 172b 2cbf
000001a0: 0000 0000 0000 0000 0000 0000 0000 0000
000001b0: 0000 0080 0000 0000 0000 0080 0000 0080
000001c0: 0000 0080 0000 0000 0000 0000 8a63 d83e
000001d0: 0000 0000 0000 0080 0000 0080 0000 0080
000001e0: 0000 0080 0000 0000 0000 0000 0000 0080
000001f0: 0000 0080 0000 0000 0000 0000 0000 0080
00000200: 0000 0000 0000 0080 fc85 c03e 0000 0000
00000210: 0000 0080 0000 0000 0000 0000 0000 0080
00000220: 0000 0080 0000 0080 0000 0080 0000 0000
00000230: 0000 0000 0000 0000 0000 0080 0000 0000
00000240: 0000 0000 0000 0080 a592 b0be 0000 0080
00000250: 3338 373f 0000 0000 0000 0080 0000 0080
00000260: 0000 0000 feb7 c9be 0000 0080 0000 0080
00000270: 0000 0000 0000 0000 3737 843e 0000 0080
00000280: 0000 0000 0000 0000 0000 0000 0000 0000
00000290: 0000 0080 0000 0080 ae82 89be 0000 0080
000002a0: 0000 0080 0000 0000 0000 0080 0000 0000
000002b0: 2a22 d1be 0000 0000 0000 0080 0000 0000
000002c0: 0cf9 223f 0000 0080 0000 0000 0000 0080
000002d0: 0000 0080 0f2b 12bf 0000 0000 0000 0080
000002e0: a0c5 9c3e 0000 0000 0000 0000 0000 0000
000002f0: 0000 0080 0000 0000 0000 0080 0000 0000
00000300: 0000 0080 0000 0080 0000 0080 0000 0000
00000310: 0000 0080 0000 0080 0000 0000 0000 0080
00000320: 0000 0080 0000 0080 2473 ecbd 0000 0000
00000330: 0000 0080 0000 0000 0000 0080 0000 0080
00000340: 0000 0080 0000 0000 0000 0080 0000 0000
00000350: 0000 0000 0000 0080 0000 0080 0000 0080
00000360: 0000 0000 0000 0000 0000 0080 0000 0080
00000370: a4f9 6dbe 0000 0080 0000 0080 0000 0080
00000380: 0000 0080 0000 0080 0000 0000 0000 0000
00000390: 0000 0000 0000 0080 0000 0080 0000 0080
000003a0: 0000 0000 0000 0080 0000 0000 0000 0080
000003b0: 0000 0000 0000 0080 0000 0000 9b94 bc3e
000003c0: 0000 0080 0000 0080 0000 0080 0000 0080
000003d0: 0000 0000 0000 0000 0000 0000 0000 0000
000003e0: 0000 0080 0000 0000 0000 0080 4170 93be
000003f0: 0000 0080 0000 0000 0000 0080 0000 0000
-0.0 -0.0 -0.0 0.0 -0.0 0.0 0.0 -0.0
-0.0 -0.0 0.0 -0.0 0.0 -0.46544614 -0.0 0.0
0.0 0.0 -0.0 0.0 0.0 -0.0 -0.0 0.0
0.0 0.0 0.0 0.0 -0.71397275 0.0 -0.0 0.0
0.0 -0.0 -0.4377657 0.0 -0.0 -0.0 -0.0 0.0
0.0 -0.0 -0.0 0.0 0.0 0.0 0.0 0.0
-0.0 -0.0 -0.0 0.0 0.0 0.0 0.0 0.0
0.0 0.0 -0.4429766 0.0 -0.0 0.0 0.0 0.0
-0.25874543 -0.0 0.0 -0.0 -0.0 -0.0 0.0 -0.0
-0.0 0.0 0.683498 -0.0 0.5431796 0.0 -0.0 0.36001888
0.0 -0.0 -0.0 -0.0 -0.0 0.0 0.0 0.0
0.0 -0.0 -0.0 0.0 -0.0 -0.0 -0.0 -0.0
-0.0 -0.0 -0.0 -0.0 0.0 -0.0 0.0 -0.6725325
0.0 0.0 0.0 0.0 -0.0 0.0 -0.0 -0.0
-0.0 0.0 0.0 0.42263442 0.0 -0.0 -0.0 -0.0
-0.0 0.0 0.0 -0.0 -0.0 0.0 0.0 -0.0
0.0 -0.0 0.37602222 0.0 -0.0 0.0 0.0 -0.0
-0.0 -0.0 -0.0 0.0 0.0 0.0 -0.0 0.0
0.0 -0.0 -0.3448688 -0.0 0.7157013 0.0 -0.0 -0.0
0.0 -0.39398187 -0.0 -0.0 0.0 0.0 0.25823376 -0.0
0.0 0.0 0.0 0.0 -0.0 -0.0 -0.26857513 -0.0
-0.0 0.0 -0.0 0.0 -0.40846378 0.0 -0.0 0.0
0.63661265 -0.0 0.0 -0.0 -0.0 -0.5709695 0.0 -0.0
0.30619526 0.0 0.0 0.0 -0.0 0.0 -0.0 0.0
-0.0 -0.0 -0.0 0.0 -0.0 -0.0 0.0 -0.0
-0.0 -0.0 -0.11545399 0.0 -0.0 0.0 -0.0 -0.0
-0.0 0.0 -0.0 0.0 0.0 -0.0 -0.0 -0.0
0.0 0.0 -0.0 -0.0 -0.23239762 -0.0 -0.0 -0.0
-0.0 -0.0 0.0 0.0 0.0 -0.0 -0.0 -0.0
0.0 -0.0 0.0 -0.0 0.0 -0.0 0.0 0.36832127
-0.0 -0.0 -0.0 -0.0 0.0 0.0 0.0 0.0
-0.0 0.0 -0.0 -0.2879658 -0.0 0.0 -0.0 0.0

18.weight f4 [64]
00000000: cee1 6d3f 6cbb 443f 311f dd3f 3f1c 293f
00000010: 644d 1d3f eb66 923f 253a 873f 7cdf 1c40
00000020: 0733 703f eb13 183f 9f6b 393f aa8e 113f
00000030: 49bf 6b3f 9b41 9e3f d056 5d3f c95d 733f
00000040: 24b8 7e3f c871 823f 230f 5a3f 56d9 2c3f
00000050: a078 9c3f acea 893f 5d3d 443f aae9 933f
00000060: 0273 753f 19b4 7c3f a761 0b3f 927b 873f
00000070: 55bb 0640 22ae 153f 9845 383f 0d6b 703f
00000080: 80e7 373f 0307 873f f606 c63f 1549 3f3f
00000090: 2eb0 0f3f bf62 aa3f bca5 4e3f 0779 4e3f
000000a0: f675 af3f ae21 833f 5bcf dd3f 886a 383f
000000b0: 43e5 533f e5a4 883f 11da 693f 11f4 163f
000000c0: b8fc 433f 615c 2e3f f373 7f3f 6f3d 933f
000000d0: 1333 803f a268 3e3f 5c74 903f b4f9 923f
000000e0: 277a 3d3f e82d 453f aa56 3a3f d263 773f
000000f0: e6ca 513f 7ede 573f 2a94 653f d839 823f
0.92922676 0.76848483 1.7275144 0.66058725 0.61446214 1.1437658 1.0564619 2.4511404
0.9382786 0.5940539 0.7242984 0.56858313 0.92088753 1.2363771 0.8646059 0.9506498
0.99499726 1.0190973 0.85179347 0.6751913 1.2224312 1.0774741 0.7665613 1.1555684
0.95878613 0.9871231 0.5444588 1.0584586 2.1051838 0.5846883 0.7198119 0.93913347
0.71837616 1.0549015 1.5470874 0.7472089 0.56128204 1.3311385 0.8072164 0.80653423
1.3707874 1.0244653 1.7328905 0.72037554 0.827717 1.0675322 0.9134837 0.58966166
0.76557493 0.6810971 0.997863 1.1503123 1.0015587 0.74378407 1.128551 1.1482453
0.74014515 0.7702317 0.7278849 0.9663669 0.81950223 0.8432387 0.89679205 1.0173903
