model_final.onnx (onnx, 663707 bytes, 47 tensors)

BatchNormalization_0_param0 f4 [64]
0	0x3f3d957d	0.74056226
1	0x3f83e803	1.0305179
2	0x3fa60e96	1.2973201
3	0x3f99f567	1.2028016
4	0x3f8ab6ed	1.0837075
5	0x3f9e1627	1.235051
6	0x3f5d01e7	0.8633103
7	0x3f902ec6	1.1264274
8	0x3f80ee36	1.0072696
9	0x3fa17360	1.2613335
10	0x3f84b99e	1.0369146
11	0x3f4c3a49	0.79776436
12	0x3f8d6095	1.10451
13	0x3f8f0811	1.1174337
14	0x3f990696	1.1955135
15	0x3fa3689b	1.2766298
16	0x3f7fde09	0.99948174
17	0x3fa87a3e	1.3162305
18	0x3f7db1dd	0.9909952
19	0x3f6b4316	0.9189924
20	0x3f8f41c4	1.1191945
21	0x3f8dc062	1.1074336
22	0x3f84cae8	1.0374422
23	0x3fa95ba6	1.3231094
24	0x3f942b55	1.1575724
25	0x3f9a828c	1.207109
26	0x3f833d2e	1.0253046
27	0x3f878de5	1.0590178
28	0x3f80e66a	1.0070317
29	0x3f472d49	0.77803475
30	0x3f7de72f	0.99180883
31	0x3fa9ec4f	1.3275241
32	0x3f9f3162	1.2436945
33	0x3f7a97f8	0.97888136
34	0x3f8218bf	1.0163802
35	0x3f80e23e	1.0069044
36	0x3f477c84	0.7792437
37	0x3f960e0c	1.1723037
38	0x3f921c19	1.1414825
39	0x3f81d684	1.014359
40	0x3f8ce15d	1.1006275
41	0x3f454253	0.7705433
42	0x3f95baeb	1.1697668
43	0x3f65993e	0.89686954
44	0x3f79c2b9	0.9756275
45	0x3f7ce90f	0.9879312
46	0x3f7c0dd5	0.98458606
47	0x3f477fce	0.7792939
48	0x3f8ca127	1.098668
49	0x3f5ae4a9	0.8550516
50	0x3f72f5ef	0.94906515
51	0x3f8a5752	1.0807898
52	0x3f8107a3	1.0080456
53	0x3f82c86c	1.0217414
54	0x3fa2f0fa	1.272979
55	0x3f815501	1.0104066
56	0x3f8459c9	1.03399
57	0x3f97b4bf	1.1852034
58	0x3f9714d1	1.1803228
59	0x3f59ae0e	0.8503121
60	0x3fac4a2e	1.3460138
61	0x3fb330e4	1.3999295
62	0x3f8aa9a0	1.0833015
63	0x3f8af16e	1.0854928

BatchNormalization_0_param1 f4 [64]
0	0xbea8f10c	-0.32996404
1	0xbdefb722	-0.11704852
2	0xbeb7a594	-0.35868514
3	0x3e3c98c1	0.18417646
4	0x3eeade79	0.45872858
5	0xbefb4f8c	-0.49084127
6	0xbe973d1e	-0.29538816
7	0xbdb44174	-0.08801547
8	0xbe3f8410	-0.18702722
9	0xbd8cd31f	-0.06876206
10	0xbe81e38a	-0.2536891
11	0xbd952507	-0.07282453
12	0xbebce9f5	-0.36897245
13	0xbde2ff61	-0.11083866
14	0x3dd25da9	0.102717705
15	0xbde3517b	-0.110995255
16	0xbe52912a	-0.20563188
17	0xbe75958f	-0.23982833
18	0x3d820a27	0.06349593
19	0xbeac18c9	-0.3361266
20	0xbdaf7b0d	-0.08568392
21	0x3ecbc850	0.39801264
22	0xbd55fe80	-0.052244663
23	0xbedadfd9	-0.42748907
24	0xbe57c6fa	-0.21071997
25	0x3cb3de27	0.021956516
26	0xbe6668fa	-0.22500983
27	0xbe3ab249	-0.18232073
28	0xbdab0ef2	-0.0835246
29	0xbdea6ba2	-0.114463106
30	0x3e411b85	0.18858154
31	0xbe3c8283	-0.18409161
32	0x3cdb73e3	0.026788658
33	0x3e1d9e3f	0.15392397
34	0x3ed8e93c	0.42365444
35	0xbee3cb3c	-0.44490993
36	0xbd84e9a8	-0.06489879
37	0xbd9eac26	-0.077476785
38	0xbf092e50	-0.5358629
39	0xbe301351	-0.17194869
40	0xbe79f570	-0.24410033
41	0x3c814404	0.015779503
42	0xbe8c2d8e	-0.27378505
43	0x3e324762	0.17410043
44	0xbe00c2da	-0.1257433
45	0x3eb1f99c	0.3476075
46	0xbde5e353	-0.11224999
47	0x3d5b22bc	0.053499922
48	0xbef9f5e3	-0.4882041
49	0xbde00d34	-0.10940018
50	0xbec66565	-0.38749233
51	0xbe0fa35c	-0.1402716
52	0xbefde9a9	-0.4959233
53	0xbe53684b	-0.20645253
54	0xbf1d6135	-0.6147645
55	0xbeb4eb61	-0.3533583
56	0x3ed8343f	0.4222736
57	0xbd0a16f7	-0.033713307
58	0xbf1c2d9b	-0.6100709
59	0xbe7988af	-0.24368547
60	0xbee757a1	-0.45184043
61	0xbe9666c4	-0.2937528
62	0x3eafc49d	0.34329692
63	0xbc879c0f	-0.016553907

BatchNormalization_0_param2 f4 [64]
0	0x3a449a06	0.0007499758
1	0xbb614d4e	-0.0034378353
2	0x3bc11b5c	0.005893154
3	0xbbc10ddc	-0.0058915447
4	0x3b6ab003	0.0035810478
5	0x3c0c3ab0	0.008558914
6	0xbb005705	-0.0019583118
7	0x3b109205	0.002205969
8	0xbc0c4950	-0.008562401
9	0x3c325142	0.010883631
10	0xbc7c9ba4	-0.015417967
11	0xb617c20d	-2.2613706e-06
12	0xbc405cbe	-0.011740861
13	0xbb41f02e	-0.002959262
14	0x3c2594d7	0.010106287
15	0x3a6f287e	0.000912316
16	0xbbb2a2b8	-0.0054515265
17	0x3c83264c	0.016009472
18	0xbaa17685	-0.0012318647
19	0x3ac07347	0.0014682793
20	0x3be17834	0.0068807844
21	0x3c698716	0.014253398
22	0xb7180b4f	-9.062539e-06
23	0xbc897e10	-0.016783744
24	0x3c7a43fe	0.015275
25	0x3bd132ca	0.0063842284
26	0x3c49548a	0.012288222
27	0x3bc11b5c	0.005893154
28	0xbc3268be	-0.01088923
29	0x3a48b811	0.00076568226
30	0xbc513e9f	-0.012771278
31	0xbc4a097e	-0.012331365
32	0x3c9289c2	0.017887954
33	0x3c0e3579	0.008679741
34	0xbc58abe0	-0.013224572
35	0x3c1906a0	0.009339958
36	0x3617c20d	2.2613706e-06
37	0xb7298bd3	-1.010574e-05
38	0xbc18fe7e	-0.009338019
39	0x3bc102ae	0.005890212
40	0xbb0f65d5	-0.0021880765
41	0xbb00b903	-0.0019641526
42	0x3c6ac09d	0.014328149
43	0xbb03bedf	-0.0020102782
44	0xbc0c4950	-0.008562401
45	0x3c136434	0.008996058
46	0xba0149a3	-0.0004931932
47	0xba413e66	-0.0007371664
48	0x3bc0f7e9	0.005888928
49	0xb735cad8	-1.0835669e-05
50	0x3bd10574	0.006378824
51	0xbbb0e7a9	-0.00539871
52	0xbba2cbef	-0.0049681584
53	0x3b041d0a	0.002015891
54	0xbc08b2ec	-0.00834344
55	0x3b80e182	0.0039331326
56	0xbc08b9d3	-0.008345085
57	0xbc953ecc	-0.01821842
58	0xbc18d8e4	-0.0093290545
59	0xbb96646a	-0.004589607
60	0xbba2b827	-0.0049658003
61	0x3a4ab97d	0.00077333284
62	0x3c10be72	0.008834468
63	0xbc431e0d	-0.01190902

BatchNormalization_0_param3 f4 [64]
0	0x3e00037b	0.12501328
1	0x3e2ead3a	0.17058268
2	0x3ed752a9	0.42055252
3	0x3f17bf34	0.5927613
4	0x3ed0f0aa	0.40808612
5	0x3eb7b739	0.35881975
6	0x3dd91e95	0.10601536
7	0x3f3311b1	0.6994887
8	0x3eb7bbe3	0.35885534
9	0x3f71d1a6	0.94460523
10	0x3f68ce5c	0.9093988
11	0x3df0c10a	0.11755569
12	0x3f48b096	0.7839445
13	0x3f6e0920	0.92982674
14	0x3efccd19	0.49375227
15	0x3f5f00ca	0.8711058
16	0x3e948893	0.29010448
17	0x3f6c0971	0.92201906
18	0x3e987c79	0.29782465
19	0x3e10699b	0.14102785
20	0x3f03a0d1	0.5141726
21	0x3f38a8d0	0.7213259
22	0x3deb46d5	0.114881195
23	0x3f7ecad6	0.99528253
24	0x3f845fb7	1.034171
25	0x3efcfaed	0.4941019
26	0x3f0d45f6	0.55184877
27	0x3ed752a9	0.42055252
28	0x3f298cf1	0.66230685
29	0x3e53fcd9	0.20701922
30	0x3f189d34	0.5961487
31	0x3f8b32cd	1.0874878
32	0x3faab26f	1.3335704
33	0x3ea82609	0.3284152
34	0x3f4c8612	0.79892075
35	0x3eda4e81	0.4263802
36	0x3df0c10a	0.11755569
37	0x3df071f8	0.11740488
38	0x3eda4ed3	0.42638263
39	0x3f17a292	0.5923244
40	0x3f2dfe50	0.67966175
41	0x3dd20e69	0.10256655
42	0x3f3ec44c	0.74518275
43	0x3ea21740	0.31658363
44	0x3eb7bbe3	0.35885534
45	0x3ef515e3	0.4786826
46	0x3e17189f	0.14755486
47	0x3e36f060	0.17865133
48	0x3ed87d12	0.4228292
49	0x3de035cf	0.10947763
50	0x3ef95a29	0.487016
51	0x3eb78930	0.35846853
52	0x3e859db6	0.26096886
53	0x3eb02365	0.34402004
54	0x3f4a9956	0.7914022
55	0x3e8f4a2a	0.2798627
56	0x3f4a6aba	0.790691
57	0x3f9550f2	1.1665328
58	0x3ed85efa	0.4225996
59	0x3e4ad084	0.19806105
60	0x4005c62d	2.0902207
61	0x3e62ce2b	0.2214896
62	0x3f613ccf	0.8798341
63	0x3f708d02	0.9396516

BatchNormalization_1_param0 f4 [64]
0	0x3f81d401	1.0142823
1	0x3fbdfd89	1.4842998
2	0x3f8e5b78	1.1121664
3	0x3f815973	1.0105423
4	0x3f6a8c7a	0.916206
5	0x3faa5b6b	1.3309149
6	0x3f9ab8ee	1.2087686
7	0x3f5cbd8d	0.8622673
8	0x3fa054f7	1.2525929
9	0x3f4e647e	0.8062209
10	0x3f4dd92d	0.8040951
11	0x3fa777a9	1.3083392
12	0x3f4f8ace	0.81071174
13	0x3f8cd39a	1.1002076
14	0x3fb157cb	1.3854917
15	0x3f969375	1.176375
16	0x3f2ed70f	0.68296903
17	0x3f9cdc03	1.2254642
18	0x3f5557ff	0.83337396
19	0x3f598fd2	0.8498508
20	0x3f8ad20e	1.0845354
21	0x3f8ea6a7	1.1144608
22	0x3f63a952	0.8893024
23	0x3f80c61f	1.0060462
24	0x3f4c8c0b	0.7990119
25	0x3f7048ed	0.93861276
26	0x3f8d661e	1.1046789
27	0x3f9d4074	1.2285295
28	0x3f85fd0c	1.0467849
29	0x3f9163d8	1.1358595
30	0x3fdf2494	1.7433038
31	0x3fa7a08d	1.3095871
32	0x3f7621a0	0.9614506
33	0x3f91b387	1.1382912
34	0x3f5541fe	0.8330382
35	0x3f690d8b	0.9103629
36	0x3f63748a	0.888497
37	0x3f562f56	0.8366598
38	0x3fa7f49b	1.3121523
39	0x3f7c3b94	0.9852841
40	0x3f975962	1.1824152
41	0x3f8b75ed	1.0895363
42	0x3f91c12f	1.138708
43	0x3fa4c738	1.2873297
44	0x3f607678	0.8768077
45	0x3f9c027e	1.218826
46	0x3fafe3ab	1.3741354
47	0x3f9340be	1.1504133
48	0x3f9799ed	1.184385
49	0x3fb32b52	1.3997595
50	0x3fa4cf5d	1.2875782
51	0x3fae7eea	1.3632481
52	0x3f7ad9dc	0.9798868
53	0x3f521ca1	0.82074934
54	0x3f7d5388	0.98955584
55	0x3f53e8c9	0.82777077
56	0x3fa0c137	1.2558964
57	0x3f689c2b	0.90863293
58	0x3faaab6a	1.3333561
59	0x3fa48a8c	1.2854781
60	0x3f7aefe8	0.9802232
61	0x3f992448	1.1964197
62	0x3f842e5b	1.0326647
63	0x3fa86d98	1.3158445

BatchNormalization_1_param1 f4 [64]
0	0xbf7ef680	-0.9959488
1	0xbecc7d1c	-0.399392
2	0xbe4db6b1	-0.20089222
3	0x3e1db08f	0.15399383
4	0xbf421a65	-0.75821525
5	0xbed38f75	-0.41320387
6	0xbf39b338	-0.7253909
7	0xbe32b773	-0.17452793
8	0xbe9f5c62	-0.3112517
9	0xbef29950	-0.47382593
10	0xbeefbf7d	-0.4682578
11	0xbe81dd73	-0.25364265
12	0xbdb1607c	-0.08660981
13	0xbee8af7f	-0.45446393
14	0xbef2f1b0	-0.47450018
15	0xbe92a7d7	-0.28643677
16	0xbe5e6fb7	-0.21722303
17	0xbeb0971e	-0.34490293
18	0xbeb49fa0	-0.35278034
19	0xbed4607b	-0.4147986
20	0xbee24713	-0.4419485
21	0xbe880bf6	-0.26571625
22	0xbf3a7eaa	-0.72849524
23	0xbeeebcc6	-0.46628398
24	0xbef49876	-0.47772568
25	0xbde68d43	-0.11257412
26	0xbeee8d97	-0.465924
27	0xbeef70ea	-0.46765834
28	0xbe21b236	-0.15790638
29	0xbf077022	-0.52905476
30	0x3e4c3bbf	0.19944666
31	0xbeda06d2	-0.42583328
32	0xbf02cee8	-0.51096964
33	0xbee4d53b	-0.44693932
34	0xbf127b41	-0.5721932
35	0xbf38a268	-0.7212281
36	0xbe985c2c	-0.29757822
37	0xbf25ecd8	-0.6481452
38	0xbefa79a8	-0.4892094
39	0xbe74408d	-0.23852749
40	0xbdd196ed	-0.10233865
41	0xbf7b1ec1	-0.980938
42	0xbf0074c6	-0.5017818
43	0xbed61942	-0.41816145
44	0x3db4fbef	0.08837115
45	0xbdd6b501	-0.104837425
46	0xbd0620b7	-0.032746043
47	0xbf454c9a	-0.7707001
48	0xbf0cf4ce	-0.5506104
49	0xbef06747	-0.46953794
50	0xbf3db4bf	-0.7410392
51	0xbedb6bb0	-0.42855597
52	0x3dc0af0e	0.09408389
53	0xbf259054	-0.6467335
54	0xbf34306b	-0.7038638
55	0x3e076544	0.13222224
56	0xbf29398f	-0.6610345
57	0xbdb2bc04	-0.087272674
58	0xbcd17422	-0.025568072
59	0xbec5ca42	-0.38630873
60	0xbf2b706e	-0.6696843
61	0xbf092650	-0.53574085
62	0xbde57669	-0.112042256
63	0x3dac2767	0.08405953

BatchNormalization_1_param2 f4 [64]
0	0xc034e262	-2.8263173
1	0xc029c170	-2.6524315
2	0x3f35b5d5	0.7098058
3	0xc040ebbd	-3.0143883
4	0xbf5e0d88	-0.867394
5	0xc01c5c9d	-2.4431527
6	0xbea01447	-0.3126547
7	0x3f667064	0.90015244
8	0xc002c20e	-2.0430942
9	0xbf9d67bd	-1.2297283
10	0xbf22a2c4	-0.6352961
11	0xbfd6c479	-1.6778709
12	0xc027d12b	-2.6221416
13	0x3fb60e5c	1.4223132
14	0xc05faff3	-3.495114
15	0xbf5f4b98	-0.8722472
16	0xc0207b2c	-2.5075178
17	0xbf99e4c1	-1.2022935
18	0x3f93caa2	1.1546214
19	0xc004069c	-2.0629034
20	0xc028249a	-2.627234
21	0xc0060aa4	-2.0943995
22	0xbf04a24a	-0.51810133
23	0xc0925583	-4.5729384
24	0x3fe4e314	1.7881799
25	0xc020dee0	-2.5136032
26	0x3fae5f18	1.362277
27	0xc00a9b59	-2.1657317
28	0x3f9863db	1.1905473
29	0x40dc1db0	6.878624
30	0xc014b03b	-2.3232563
31	0xbfdc183e	-1.7194898
32	0x3ea5601f	0.32299897
33	0x3e916f6c	0.2840532
34	0x3e913cb9	0.2836664
35	0x3ecd4bc5	0.4009687
36	0xbf9de743	-1.23362
37	0xbd96dc1a	-0.073662
38	0xc04f5e15	-3.2401173
39	0xc0028d3f	-2.039871
40	0xbfc35884	-1.5261388
41	0xbfb9a31f	-1.4502906
42	0x3f202036	0.6254915
43	0xbfbbc8d8	-1.4670668
44	0x4016e193	2.357518
45	0xc03d2019	-2.955084
46	0xbf3e53ca	-0.743466
47	0xc07b6674	-3.9281282
48	0x3eaf768a	0.34270126
49	0xc0157a62	-2.3355947
50	0xbfd7f74e	-1.6872346
51	0xbfb38ed9	-1.4027969
52	0xbf3a58f2	-0.7279197
53	0xbe5feeb5	-0.21868403
54	0xbe260ed0	-0.16216588
55	0x4004621c	2.0684881
56	0xbffb7459	-1.9644881
57	0x3f3fec0d	0.7496956
58	0xc0304d5e	-2.754722
59	0xbfc68dd3	-1.5512031
60	0x3d51e168	0.051240355
61	0x3f9c151d	1.2193943
62	0xbf646c30	-0.8922758
63	0xbfe1b0e0	-1.7632103

BatchNormalization_1_param3 f4 [64]
0	0x3fc22568	1.5167665
1	0x408a6b64	4.325609
2	0x3fe6e102	1.8037417
3	0x40516701	3.2719119
4	0x40274ce3	2.6140678
5	0x406a7b11	3.6637614
6	0x409cf5ce	4.9050055
7	0x402d3444	2.706315
8	0x40ae322f	5.443626
9	0x40309e25	2.7596524
10	0x402e3d9c	2.7225103
11	0x40c77825	6.233416
12	0x401f9552	2.4934888
13	0x40e42dd4	7.1305943
14	0x40c492d3	6.142923
15	0x402ff0dc	2.749076
16	0x4039f545	2.905595
17	0x4107c397	8.485251
18	0x40196ec5	2.3973858
19	0x400d56bf	2.2084196
20	0x4049ceff	3.153259
21	0x40dabd2e	6.835593
22	0x4015c6ae	2.3402514
23	0x406e6706	3.725038
24	0x4062e17c	3.5450125
25	0x4054278a	3.3149133
26	0x408bf12c	4.37319
27	0x401ec3fd	2.4807122
28	0x4094718a	4.6388597
29	0x40c979f5	6.2961373
30	0x40b86c20	5.763199
31	0x41048983	8.283572
32	0x3fdf231e	1.7432592
33	0x4090c4bc	4.5240154
34	0x3fb451fc	1.408752
35	0x4001ae51	2.0262644
36	0x4050026a	3.2501473
37	0x3fc5a937	1.5442265
38	0x40997243	4.795198
39	0x40661311	3.5949137
40	0x41387036	11.527395
41	0x3fffa5b9	1.997245
42	0x40b95b00	5.7923584
43	0x4105f905	8.373296
44	0x40053387	2.08127
45	0x40df3b6b	6.976003
46	0x40f4b92c	7.647604
47	0x40518657	3.2738245
48	0x40391552	2.8919263
49	0x40e12008	7.03516
50	0x3f82d3c7	1.0220879
51	0x409dcb67	4.9310794
52	0x4005d060	2.0908432
53	0x402c52ff	2.6925657
54	0x3f82c43d	1.0216137
55	0x403327df	2.7993085
56	0x4061c869	3.527857
57	0x40060a25	2.0943692
58	0x40f7573b	7.7293983
59	0x406aab91	3.6667216
60	0x3fab9bc2	1.3406909
61	0x411aa8a5	9.666173
62	0x4099d66b	4.807424
63	0x40b3e004	5.6210957

BatchNormalization_2_param0 f4 [64]
0	0x3f8cf702	1.1012881
1	0x3f425893	0.75916404
2	0x3fa67f3e	1.3007581
3	0x3f429af0	0.76017666
4	0x3f77f441	0.96857077
5	0x3f92caeb	1.1468176
6	0x3f9cd753	1.2253212
7	0x3f583ba0	0.8446598
8	0x3ee61aa8	0.44942212
9	0x3f92e288	1.1475382
10	0x3f2eb776	0.6824869
11	0x3f37911d	0.717058
12	0x3f07cf9e	0.53051174
13	0x3f90cc30	1.1312313
14	0x3f25c674	0.6475594
15	0x3f068baa	0.5255686
16	0x3f2ea8c2	0.68226254
17	0x3f2645a3	0.6495001
18	0x3f357636	0.708835
19	0x3ef4c3d7	0.47805664
20	0x3fa6e668	1.3039064
21	0x3f0cef3b	0.55052537
22	0x3f415ea9	0.75535065
23	0x3f849ef3	1.0361007
24	0x3f02aad1	0.51041895
25	0x3f525a55	0.82169086
26	0x3f675897	0.9036955
27	0x3fb96ea6	1.4486892
28	0x3fc95222	1.572819
29	0x3f61289b	0.87952584
30	0x3f493801	0.7860108
31	0x3f7dd62b	0.9915492
32	0x3f538bf8	0.8263545
33	0x3f17093f	0.58998483
34	0x3f764306	0.9619602
35	0x3f6b1035	0.91821605
36	0x3f9627ec	1.1730933
37	0x3fafeb33	1.3743652
38	0x3f28b9f5	0.6590875
39	0x3f695055	0.911382
40	0x3f6dcbb0	0.9288893
41	0x3f5806ec	0.8438556
42	0x3f9a7d39	1.2069465
43	0x3f89cc77	1.0765523
44	0x3f80d5f1	1.006529
45	0x3fb9654c	1.4484038
46	0x3f416585	0.7554553
47	0x3f8aed41	1.0853654
48	0x3f4c29bf	0.797512
49	0x3f24bbb8	0.64348936
50	0x3f026bbc	0.5094564
51	0x3fbe40d2	1.4863532
52	0x3f974576	1.1818073
53	0x3f643764	0.8914702
54	0x3efffccb	0.49997553
55	0x3f883aeb	1.064298
56	0x3f6f0037	0.933597
57	0x3f13cdc8	0.5773587
58	0x3f6cfa69	0.92569596
59	0x3fb6208a	1.422868
60	0x3f501c4b	0.8129317
61	0x3f1a0148	0.60158205
62	0x3f999665	1.1999022
63	0x3f49ca74	0.78824544

BatchNormalization_2_param1 f4 [64]
0	0xbf6917d4	-0.91051984
1	0x3ddc72db	0.107640944
2	0xbf5dce41	-0.86642843
3	0xbea5fd6c	-0.32419908
4	0xbf63b8b5	-0.88953716
5	0xbf4ad73d	-0.7923468
6	0xbf924d83	-1.1429905
7	0xbf0cd543	-0.5501291
8	0xbe3e44b3	-0.18580894
9	0xbfa9b108	-1.3257151
10	0xbe38593a	-0.18002787
11	0xbe92be83	-0.28660974
12	0xbe9e4afa	-0.30916578
13	0xbf9356c8	-1.1510859
14	0xbe500d14	-0.20317489
15	0xbeb57154	-0.35438025
16	0x3c810d13	0.015753305
17	0xbeca15fe	-0.39469904
18	0xbf1551ce	-0.5832795
19	0xbe923513	-0.28556117
20	0xbf85e2d5	-1.0459849
21	0xbb91a4f1	-0.0044447114
22	0xbeced8fd	-0.40399924
23	0xbf1c5f04	-0.6108248
24	0xbe1594d2	-0.14607552
25	0xbe6514df	-0.22371243
26	0xbefdd1c3	-0.49574098
27	0xbf3ff84c	-0.74988246
28	0xbf7990ca	-0.97486556
29	0x3e1a093a	0.15042582
30	0x3e44b64b	0.19210164
31	0xbf343912	-0.7039958
32	0xbee5408c	-0.44775808
33	0xbec9fc8a	-0.39450485
34	0xbeee2355	-0.4651133
35	0xbf183e7c	-0.59470344
36	0xbf8108d1	-1.0080816
37	0xbf93c9bc	-1.154594
38	0xbf1bcce7	-0.6085953
39	0xbed9e5fe	-0.42558283
40	0xbf15f65f	-0.5857906
41	0xbe636a6c	-0.22208565
42	0xbf517e28	-0.81833124
43	0xbe903637	-0.28166363
44	0xbea62a48	-0.32454133
45	0xbf9435be	-1.1578901
46	0xbf1b7212	-0.6072093
47	0xbef698c6	-0.48163432
48	0xbe60e582	-0.2196255
49	0xbf0a86dd	-0.54112035
50	0xbe66a750	-0.22524762
51	0xbf975f7c	-1.1826015
52	0xbeba777e	-0.3641929
53	0xbea0380a	-0.31292754
54	0xbe32435d	-0.1740851
55	0xbe4b05f2	-0.19826487
56	0xbf17dfe8	-0.5932603
57	0xbec5be0c	-0.38621557
58	0xbe5cf3ae	-0.21577331
59	0xbf8b600e	-1.0888689
60	0xbf079163	-0.5295622
61	0xbead6f23	-0.33873853
62	0xbf8c5e80	-1.0966339
63	0xbf13073b	-0.5743291

BatchNormalization_2_param2 f4 [64]
0	0xbf54b8ea	-0.83094656
1	0x3f1030b0	0.5632429
2	0xbee441af	-0.44581363
3	0xbfc0d38c	-1.5064559
4	0x40357ea7	2.8358552
5	0xc0061b48	-2.095415
6	0xc04afcb0	-3.1716728
7	0xbf149ccd	-0.5805176
8	0xbe837cc0	-0.25681114
9	0xbf85ab75	-1.044295
10	0x3b7f7a59	0.0038982837
11	0xbfad0fdb	-1.3520464
12	0xbee63071	-0.44958833
13	0xbfc12720	-1.5090065
14	0xbfe1d526	-1.7643173
15	0xbf295794	-0.6614926
16	0x3f9a21b9	1.2041541
17	0xbf3186be	-0.69346225
18	0x3fe0a074	1.7548966
19	0x3eb0456d	0.34427968
20	0xbfda3fd5	-1.705073
21	0xbf6a6aea	-0.9156939
22	0xbf890e3c	-1.0707469
23	0xbfac5f91	-1.3466665
24	0xbf7588b0	-0.95911694
25	0xc008b9c9	-2.1363394
26	0xbfaa52d6	-1.330653
27	0xc0039dc2	-2.0565038
28	0xbfa8eabb	-1.3196634
29	0xbf3a7f72	-0.72850716
30	0xbfd247a9	-1.6428119
31	0xbeefe04e	-0.46850818
32	0xc00d9094	-2.2119493
33	0xbfb44888	-1.4084635
34	0xc00e83d4	-2.2267962
35	0xc02641df	-2.5977705
36	0xbf78e06d	-0.97217447
37	0xbec84ca7	-0.3912098
38	0xbf1e0057	-0.6171927
39	0xbfad15bf	-1.3522261
40	0xbfae7dfc	-1.3632197
41	0x400dfee6	2.2186828
42	0xc0075155	-2.114339
43	0x3f5e0e46	0.8674053
44	0x3daa8c08	0.0832749
45	0xbf555138	-0.83327055
46	0xbf8685d2	-1.0509589
47	0xc00111c5	-2.0167096
48	0x3e87fcb1	0.26559976
49	0xbee2e07b	-0.4431189
50	0xbf51be48	-0.8193097
51	0xbff71c59	-1.9305526
52	0xbfc68311	-1.5508748
53	0xc00a4447	-2.1604173
54	0xbe5b59eb	-0.2142102
55	0xbfcfb4e5	-1.622708
56	0x400701fe	2.1094966
57	0x3f3db1e4	0.74099565
58	0xbf91519d	-1.1353031
59	0xc002fae9	-2.0465643
60	0x3e373c74	0.17894155
61	0x3e1092b9	0.1411847
62	0xc04c9c94	-3.1970568
63	0xbfa02e55	-1.251414

BatchNormalization_2_param3 f4 [64]
0	0x409339f5	4.600825
1	0x3f9675cb	1.1754698
2	0x40c6e341	6.215241
3	0x3ff55315	1.916598
4	0x40037867	2.0542238
5	0x40302bd4	2.752675
6	0x4021ec24	2.5300379
7	0x40044462	2.0666738
8	0x3f43647c	0.763252
9	0x3f81e615	1.014834
10	0x3f88a6bc	1.0675883
11	0x3fad6d38	1.3548956
12	0x3f176ca0	0.59150124
13	0x3fc80866	1.5627563
14	0x404b9e25	3.1815274
15	0x3f55470a	0.8331152
16	0x3fae7acf	1.3631228
17	0x3fc7ab0f	1.5599078
18	0x4008fa2f	2.14027
19	0x3f7fc905	0.99916106
20	0x40bf426f	5.9768596
21	0x40170d7c	2.360198
22	0x3fd58fab	1.6684469
23	0x40624fa4	3.5361109
24	0x3f823a98	1.0174131
25	0x401ba6e4	2.4320612
26	0x3f93641c	1.1514926
27	0x400617b4	2.0951967
28	0x40098314	2.1486254
29	0x407b1f7d	3.923797
30	0x3fff4ee1	1.9945947
31	0x408072ae	4.013999
32	0x3f9bae9e	1.2162664
33	0x3f816f78	1.0112143
34	0x409283da	4.578595
35	0x4016713f	2.350662
36	0x408d29ff	4.4113765
37	0x40acd7cb	5.401342
38	0x3f8382de	1.0274312
39	0x3ffba940	1.9661026
40	0x3fd8ac8c	1.6927657
41	0x406a6a52	3.6627393
42	0x403b8062	2.9297109
43	0x401a1558	2.4075527
44	0x3feb1398	1.8365355
45	0x41274518	10.454369
46	0x3f8b2eec	1.0873694
47	0x400695f3	2.1029022
48	0x4009a2bc	2.1505575
49	0x3f87832f	1.0586909
50	0x3f60713a	0.8767277
51	0x40e7087d	7.219786
52	0x4005b163	2.0889518
53	0x40ac0af2	5.376336
54	0x3f61d485	0.88214904
55	0x4088db1f	4.276748
56	0x407cd3d8	3.95043
57	0x3f8162c6	1.0108268
58	0x408a24b4	4.3169804
59	0x40ce9a79	6.4563565
60	0x3fa19a64	1.2625241
61	0x3f87d573	1.0612015
62	0x3f9be007	1.2177743
63	0x4011f40a	2.28052

BatchNormalization_3_param0 f4 [64]
0	0x3fe45c4d	1.7840668
1	0x3fa5cad3	1.2952522
2	0x3f7846e6	0.9698318
3	0x3fa842cc	1.3145385
4	0x3f63c3db	0.88970727
5	0x3f8bd730	1.0925045
6	0x3f16def4	0.5893395
7	0x3f6e5207	0.93093914
8	0x3f637f8f	0.88866514
9	0x3f69a12d	0.9126156
10	0x3f6726a1	0.9029332
11	0x3f78f96e	0.972556
12	0x3f2f141b	0.68390054
13	0x3f5afc7a	0.855415
14	0x3f791ca9	0.97309357
15	0x3f509dfc	0.81491065
16	0x3f339eea	0.7016436
17	0x3f140d95	0.57833225
18	0x3fb93a5b	1.4470934
19	0x3f2a54b9	0.66535527
20	0x3f446e6e	0.76731
21	0x3f8c2fc2	1.0952075
22	0x3f1714ea	0.5901629
23	0x3f83974b	1.0280546
24	0x3f5947c6	0.8487514
25	0x3f4cb0d3	0.7995731
26	0x3f6b650e	0.9195107
27	0x3fd7356b	1.6813177
28	0x3f5596c6	0.83433187
29	0x3f28b78f	0.6590509
30	0x3f1a3d7c	0.6025007
31	0x3fa353ae	1.2759912
32	0x3fbfd062	1.4985468
33	0x3f547c3b	0.8300206
34	0x3f68270e	0.9068459
35	0x3fcfd82e	1.6237848
36	0x3f6eb9a8	0.9325204
37	0x3fb864c3	1.440575
38	0x3fb95a3e	1.4480665
39	0x3f7ac824	0.9796164
40	0x3f1d42ee	0.6143025
41	0x3f44234f	0.76616377
42	0x3f37c2ac	0.7178142
43	0x3f1cdeff	0.61277765
44	0x3f5c235f	0.8599147
45	0x3f45b206	0.7722477
46	0x3f1a1339	0.6018558
47	0x3f6a93ab	0.91631573
48	0x3f31c3c2	0.6943933
49	0x3f933973	1.1501907
50	0x3f2774b4	0.6541245
51	0x3f4d25cd	0.80135804
52	0x3f7d397f	0.9891586
53	0x3f2cacf5	0.6745141
54	0x3f3356d2	0.7005435
55	0x3f5b5448	0.8567548
56	0x3f79062c	0.9727504
57	0x3f3b84cd	0.7324951
58	0x3f5a0157	0.85158294
59	0x3f2d0b7c	0.6759565
60	0x3f1a893a	0.6036564
61	0x3f1c4023	0.61035365
62	0x3f94d8d8	1.1628675
63	0x3f2a846a	0.666083

BatchNormalization_3_param1 f4 [64]
0	0xbfaae395	-1.3350703
1	0xbf5c864f	-0.8614244
2	0xbed7592e	-0.42060226
3	0xbd954e06	-0.072902724
4	0xbf3c0e6d	-0.7345951
5	0xbe50d617	-0.20394169
6	0x3d53e281	0.051729683
7	0xbf95d1c6	-1.1704643
8	0xbe32f3be	-0.17475793
9	0xbddad403	-0.10684969
10	0xbf08da54	-0.5345814
11	0xbf7a6039	-0.97803074
12	0xbebeac70	-0.37240934
13	0xbec894f4	-0.39176142
14	0xbf1b818a	-0.60744536
15	0xbf24074a	-0.6407362
16	0xbe2aa096	-0.16662821
17	0xbd9e1372	-0.07718553
18	0xbfa060f1	-1.2529584
19	0xbe5dbfdd	-0.21655221
20	0xbeb78c44	-0.35849202
21	0xbf845ed4	-1.0341439
22	0xbea65cd6	-0.32492703
23	0xbef20496	-0.47269124
24	0xbeb8d828	-0.36102414
25	0xbfb399e2	-1.4031336
26	0xbf8d3406	-1.1031501
27	0xbf2fc714	-0.68663144
28	0xbdca619e	-0.098819
29	0xbe92e613	-0.28691158
30	0xbf3f1b96	-0.7465147
31	0xbe4a2396	-0.19740137
32	0xbf34d14e	-0.70631874
33	0xbeadf565	-0.33976284
34	0xbf2ce3c6	-0.67535055
35	0xbf416fb9	-0.755611
36	0xbf00bab6	-0.502849
37	0xbfa92891	-1.3215505
38	0xbf77a75b	-0.9673974
39	0xbf83f2b1	-1.0308439
40	0xbe23a3f1	-0.15980507
41	0xbe2ef1cf	-0.1708443
42	0xbf009b0a	-0.5023657
43	0xbec070fa	-0.37586194
44	0xbf910d21	-1.1332132
45	0xbd550216	-0.052003942
46	0xbf09aa24	-0.5377524
47	0xbe9893c2	-0.2980023
48	0x3e3c46db	0.18386404
49	0xbea070aa	-0.31335956
50	0xbe6e4f13	-0.23272352
51	0xbf20533a	-0.62626994
52	0xbec88062	-0.39160448
53	0xbe34726d	-0.17621775
54	0xbd25fcda	-0.04052434
55	0x3d9adbcf	0.075614564
56	0xbeff632a	-0.49880344
57	0xbf28dd87	-0.65963024
58	0xbe2c8c9f	-0.16850518
59	0x3cb5050d	0.022097135
60	0x3c6dd2d0	0.014515594
61	0x3deaf6ee	0.11472879
62	0xbf2a8048	-0.6660199
63	0xbe16c96a	-0.14725271

BatchNormalization_3_param2 f4 [64]
0	0xbebef2a0	-0.37294483
1	0xbfebfb07	-1.8435982
2	0x3e3b44ee	0.18288013
3	0x3fe83ead	1.8144127
4	0xbe970d25	-0.29502216
5	0xbf1faf4f	-0.62376875
6	0xbd9dec22	-0.077110544
7	0x3f8472d9	1.0347549
8	0xbfe2b356	-1.7710979
9	0xbf1fe8bb	-0.62464494
10	0x3f2cce88	0.6750264
11	0xbf314406	-0.6924442
12	0x3e9e0cbc	0.3086909
13	0xbe1102bc	-0.141612
14	0xbfae8453	-1.3634132
15	0xbf357f7c	-0.7089765
16	0x3d5c98c7	0.053856637
17	0x3e769f7d	0.24084277
18	0x3dd33c5f	0.10314249
19	0x3e60c986	0.21951875
20	0xbedae063	-0.42749318
21	0xbe34586b	-0.17611854
22	0xbdb95d98	-0.09051055
23	0x3f4fa111	0.8110514
24	0x3e884159	0.26612356
25	0x3e097d0e	0.13426611
26	0x3ee51c70	0.4474826
27	0xbe1ce3ed	-0.15321322
28	0x3f29ab3f	0.66276926
29	0x3e1f315c	0.15546173
30	0x3dc98591	0.09839929
31	0x3e93818d	0.28809777
32	0xbfb3878d	-1.4025742
33	0x3fb908c7	1.4455804
34	0xbe92e743	-0.28692064
35	0xbea5dae7	-0.32393572
36	0xbf9f6d5b	-1.2455248
37	0xbe7b03d3	-0.24513178
38	0xbfa4c095	-1.2871271
39	0xbfc54a45	-1.541329
40	0x3f34f17e	0.7068099
41	0xbea6c5a6	-0.3257267
42	0xbf07c39a	-0.5303284
43	0xbcaf36a0	-0.021388352
44	0x3f98516d	1.1899849
45	0xbe9fae58	-0.311877
46	0x3f562d89	0.8366323
47	0xbf2e3553	-0.68050116
48	0x3eb6d11e	0.3570642
49	0xbfe717b5	-1.805411
50	0x3eff55e8	0.4987023
51	0xbf1a1dcc	-0.60201716
52	0xbf62833b	-0.8848149
53	0x3e375e64	0.17907101
54	0x3e55d3d9	0.20881595
55	0xbe704eae	-0.23467514
56	0xbf529173	-0.8225319
57	0xbef842c4	-0.48488438
58	0xbf2c9b37	-0.6742434
59	0x3f06998b	0.5257804
60	0xbfb48ec6	-1.4106071
61	0x3fc1ba9b	1.5135072
62	0xbf9597f4	-1.1686997
63	0x3e1973af	0.14985536

BatchNormalization_3_param3 f4 [64]
0	0x3e6718fa	0.22568122
1	0x40364a76	2.8482947
2	0x3f1115ca	0.5667387
3	0x4005ef11	2.0927165
4	0x3ed3120f	0.41224715
5	0x3fa18ca3	1.2621044
6	0x3f131685	0.5745624
7	0x3f810310	1.007906
8	0x3ee7e73f	0.45293614
9	0x40161abc	2.3453817
10	0x3f8bc9fe	1.0921018
11	0x3eee6dfd	0.4656829
12	0x3fa07dbb	1.253837
13	0x400df587	2.2181108
14	0x3f0d6988	0.5523915
15	0x3ef6c6ac	0.4819845
16	0x3f2df4b4	0.6795151
17	0x3f165cf4	0.58735585
18	0x3ecc6194	0.39918196
19	0x3f884c10	1.0648212
20	0x400207f4	2.0317354
21	0x3e2aa87c	0.16665834
22	0x3f16350f	0.5867471
23	0x3fffedae	1.9994409
24	0x3f8e9fba	1.1142495
25	0x3e031b92	0.12803486
26	0x3ea03fd0	0.31298685
27	0x3e8fb868	0.28070378
28	0x3f0f65de	0.5601481
29	0x3f367b52	0.7128192
30	0x3de2dd1b	0.11077329
31	0x40609be4	3.5095148
32	0x3f110144	0.56642556
33	0x3f9311d2	1.1489813
34	0x3eda2882	0.4260903
35	0x3f4a253f	0.78963083
36	0x3ee85f3c	0.45385158
37	0x3e4cc2e4	0.1999622
38	0x3f55ceb5	0.83518535
39	0x3f142b1e	0.5787829
40	0x3f6a094a	0.91420424
41	0x3f6440f7	0.8916163
42	0x3f4f1d10	0.8090372
43	0x3ecdb362	0.4017592
44	0x3f852cb6	1.040427
45	0x3efe018a	0.4961055
46	0x3f00d6f3	0.50327986
47	0x3f8dddbb	1.1083292
48	0x3f55170c	0.8323829
49	0x3eeaaf97	0.4583709
50	0x3f310b6a	0.6915804
51	0x3f247ce1	0.6425305
52	0x4023be4f	2.5584905
53	0x3f5b4dc3	0.8566553
54	0x3f86e2d7	1.0537976
55	0x3f149540	0.5804024
56	0x3f52028a	0.82035124
57	0x3f23284d	0.6373337
58	0x3ee9b71a	0.45647508
59	0x3eb69074	0.35657084
60	0x3f122d41	0.571003
61	0x3f27b3ee	0.65508926
62	0x3edeb08d	0.43494073
63	0x400f3830	2.2378044

BatchNormalization_4_param0 f4 [64]
0	0x3f6de1ce	0.92922676
1	0x3f44bb6c	0.76848483
2	0x3fdd1f31	1.7275144
3	0x3f291c3f	0.66058725
4	0x3f1d4d64	0.61446214
5	0x3f9266eb	1.1437658
6	0x3f873a25	1.0564619
7	0x401cdf7c	2.4511404
8	0x3f703307	0.9382786
9	0x3f1813eb	0.5940539
10	0x3f396b9f	0.7242984
11	0x3f118eaa	0.56858313
12	0x3f6bbf49	0.92088753
13	0x3f9e419b	1.2363771
14	0x3f5d56d0	0.8646059
15	0x3f735dc9	0.9506498
16	0x3f7eb824	0.99499726
17	0x3f8271c8	1.0190973
18	0x3f5a0f23	0.85179347
19	0x3f2cd956	0.6751913
20	0x3f9c78a0	1.2224312
21	0x3f89eaac	1.0774741
22	0x3f443d5d	0.7665613
23	0x3f93e9aa	1.1555684
24	0x3f757302	0.95878613
25	0x3f7cb419	0.9871231
26	0x3f0b61a7	0.5444588
27	0x3f877b92	1.0584586
28	0x4006bb55	2.1051838
29	0x3f15ae22	0.5846883
30	0x3f384598	0.7198119
31	0x3f706b0d	0.93913347
32	0x3f37e780	0.71837616
33	0x3f870703	1.0549015
34	0x3fc606f6	1.5470874
35	0x3f3f4915	0.7472089
36	0x3f0fb02e	0.56128204
37	0x3faa62bf	1.3311385
38	0x3f4ea5bc	0.8072164
39	0x3f4e7907	0.80653423
40	0x3faf75f6	1.3707874
41	0x3f8321ae	1.0244653
42	0x3fddcf5b	1.7328905
43	0x3f386a88	0.72037554
44	0x3f53e543	0.827717
45	0x3f88a4e5	1.0675322
46	0x3f69da11	0.9134837
47	0x3f16f411	0.58966166
48	0x3f43fcb8	0.76557493
49	0x3f2e5c61	0.6810971
50	0x3f7f73f3	0.997863
51	0x3f933d6f	1.1503123
52	0x3f803313	1.0015587
53	0x3f3e68a2	0.74378407
54	0x3f90745c	1.128551
55	0x3f92f9b4	1.1482453
56	0x3f3d7a27	0.74014515
57	0x3f452de8	0.7702317
58	0x3f3a56aa	0.7278849
59	0x3f7763d2	0.9663669
60	0x3f51cae6	0.81950223
61	0x3f57de7e	0.8432387
62	0x3f65942a	0.89679205
63	0x3f8239d8	1.0173903

BatchNormalization_4_param1 f4 [64]
0	0xbf1b3780	-0.6063156
1	0xbf334868	-0.7003236
2	0xbf9c5d03	-1.2215885
3	0xbec3c6d7	-0.3823764
4	0xbe8421d7	-0.25807068
5	0xbf9a62f2	-1.2061446
6	0xbea2dcfc	-0.31809223
7	0xbf5b056b	-0.8555514
8	0xbe970f3e	-0.29503816
9	0x3c61fb37	0.013792804
10	0xbd472980	-0.04862356
11	0xbeb913e6	-0.36147994
12	0xbf0e341b	-0.55548257
13	0xbed907f6	-0.42388886
14	0xbe45eed3	-0.19329385
15	0x3c1241a3	0.008926782
16	0xbe282090	-0.16418672
17	0x3d9f04dc	0.07764599
18	0xbf3dcfa2	-0.7414495
19	0xbf027cc7	-0.50971645
20	0xbe9446f2	-0.28960377
21	0xbf2fdf6d	-0.68700296
22	0x3c7c74ab	0.015408675
23	0xbf1eff29	-0.62108094
24	0xbf3b0b29	-0.73063904
25	0xbf57c8a7	-0.84290546
26	0xbeb2c878	-0.3491857
27	0xbf1f8e2c	-0.6232631
28	0xbf07a934	-0.5299256
29	0x3de24bbb	0.11049601
30	0x3e891878	0.2677648
31	0xbe38f8bf	-0.18063639
32	0xbd8976dc	-0.06712124
33	0xbe3e289f	-0.18570183
34	0xbf0b7108	-0.54469347
35	0xbebab950	-0.36469507
36	0x3c9da90d	0.019245649
37	0xbdb6b299	-0.089207835
38	0xbfb1a208	-1.3877573
39	0xbe9eaee8	-0.30992818
40	0xbd669f05	-0.056303997
41	0xbe96342e	-0.29336685
42	0xbf4797e3	-0.77966136
43	0xbf42a94d	-0.7603958
44	0xbf28ab32	-0.65886223
45	0xbea94d93	-0.33066997
46	0xbee20049	-0.44140843
47	0xbe8f4485	-0.27981964
48	0xbf4e2b64	-0.8053496
49	0xbe4ba9ab	-0.19888942
50	0xbe3dbfc8	-0.1853019
51	0xbf29b9b3	-0.6629898
52	0xbdb4e387	-0.0883246
53	0xbf606590	-0.8765497
54	0x3cd552b6	0.026040416
55	0xbd8a0c67	-0.06740647
56	0xbe27ebfe	-0.16398618
57	0x3e7c5921	0.24643375
58	0xbe52ac24	-0.20573479
59	0xbe375e3b	-0.1790704
60	0xbf47d1b0	-0.7805433
61	0xbeb7ef94	-0.3592497
62	0xbf9faf18	-1.2475309
63	0x3debef60	0.115202665

BatchNormalization_4_param2 f4 [64]
0	0xbe8d8f68	-0.27648473
1	0xbde4e263	-0.11175992
2	0x3f1ab3ca	0.60430586
3	0x3f645095	0.8918546
4	0x3f896dfe	1.0736692
5	0xbf0b965d	-0.5452631
6	0xbd493da8	-0.049131066
7	0x3f378412	0.716859
8	0xbfbaf612	-1.4606345
9	0x3ec7c5da	0.39018136
10	0x3f48882a	0.7833277
11	0x3e26d7cf	0.16293262
12	0xbf18e74c	-0.5972793
13	0x3f892b2b	1.0716299
14	0x3f88becb	1.0683225
15	0xbd9bd769	-0.076094456
16	0xbf765e65	-0.96237785
17	0xbd8fe51d	-0.07026122
18	0xbfaac6ea	-1.3341954
19	0x3ced411d	0.028961712
20	0xbf8f08ae	-1.1174524
21	0x3e0401d3	0.12891321
22	0x3f019873	0.50623244
23	0x3f0aeeb4	0.5427048
24	0xbeaba07e	-0.33520883
25	0xbea7d1a0	-0.3277712
26	0x3eb82fc0	0.3597393
27	0xbf8cef8d	-1.1010605
28	0x3f266257	0.64993805
29	0x3fbcde7b	1.4755396
30	0xbf320313	-0.6953594
31	0x3ee25659	0.44206503
32	0x3cc37a9a	0.023862172
33	0x3f7bff8a	0.98436797
34	0x3f0f54d0	0.5598879
35	0x3e0fb68e	0.14034483
36	0x3db3d263	0.087803625
37	0xbf94700f	-1.1596698
38	0xbe1dfe29	-0.15428986
39	0xc0027280	-2.0382385
40	0xbfe06bed	-1.7532936
41	0x3ea02073	0.31274757
42	0xbe788f2b	-0.24273364
43	0xbe3c61f1	-0.18396737
44	0x3d6ed064	0.058304206
45	0xbe6e5989	-0.23276342
46	0x3f478d73	0.7795021
47	0xbed7160f	-0.42009017
48	0xbf3b4537	-0.7315249
49	0xbd11b5e7	-0.035573866
50	0x3f20a9fe	0.6275939
51	0xc0132677	-2.2992227
52	0x3f26ed7a	0.6520611
53	0x3f0d615f	0.552267
54	0xbfbb4117	-1.4629239
55	0x3f1ce78e	0.61290824
56	0x3f8ee6ad	1.1164147
57	0x3f351957	0.7074179
58	0x3eb18fc4	0.34679997
59	0x3e47f55b	0.1952719
60	0xbdd58869	-0.10426409
61	0xbf2402af	-0.64066595
62	0x3cffbd3c	0.031218164
63	0xbea0277a	-0.31280118

BatchNormalization_4_param3 f4 [64]
0	0x3fa3f07f	1.2807769
1	0x3f1944f1	0.5987082
2	0x3fd88692	1.6916068
3	0x3fb5718c	1.4175277
4	0x3f77c2a0	0.9678135
5	0x3e8beb9b	0.2732819
6	0x3fef9a4b	1.8718961
7	0x3f723d9c	0.9462526
8	0x3ff32dbb	1.8998331
9	0x4003ba44	2.0582438
10	0x3f48e698	0.7847686
11	0x3ef9fcdc	0.4882573
12	0x3fbfdff1	1.4990216
13	0x3fe744bb	1.806785
14	0x3f38f871	0.7225409
15	0x3f845dc8	1.034112
16	0x3f31d804	0.6947024
17	0x40601179	3.5010664
18	0x3fa77132	1.308142
19	0x3dddd03d	0.10830734
20	0x4093479f	4.602493
21	0x3fa181a4	1.2617688
22	0x4037f861	2.8745348
23	0x40259cef	2.5877035
24	0x3f20b74c	0.6277969
25	0x3eecd4ca	0.46256095
26	0x3ed3fd91	0.41404393
27	0x3fd88ee8	1.6918612
28	0x3f357bab	0.7089183
29	0x3fccb70a	1.5993359
30	0x3fa60ff4	1.2973619
31	0x4018ace0	2.3855515
32	0x3f897c05	1.0740973
33	0x3f910232	1.1328795
34	0x3f989368	1.1919985
35	0x3f0d170c	0.5511329
36	0x3fd0c272	1.630934
37	0x3fe4614b	1.7842191
38	0x3f0aa6e9	0.54160935
39	0x3f8efb98	1.117053
40	0x408cb804	4.397463
41	0x3fb69991	1.4265615
42	0x3eac49b3	0.33649978
43	0x3e363169	0.17792286
44	0x3f35c6ae	0.71006286
45	0x4050c97f	3.2622983
46	0x3f19506a	0.5988833
47	0x3fb3da81	1.4051057
48	0x3efefb24	0.4980098
49	0x3f7f8d12	0.9982463
50	0x404880f5	3.132871
51	0x405733dd	3.3625405
52	0x3f3388a2	0.7013036
53	0x3f72a545	0.9478343
54	0x4033d203	2.809693
55	0x406f7d64	3.7420282
56	0x3fcd0031	1.6015683
57	0x402c278e	2.6899142
58	0x3f172bb8	0.59051085
59	0x3f310867	0.69153446
60	0x3f5f991c	0.87343
61	0x3febf4d3	1.843409
62	0x3ec62e13	0.38707027
63	0x3f5d80c8	0.8652463

BatchNormalization_5_param0 f4 [64]
0	0x3fac4572	1.3458693
1	0x3f93be23	1.15424
2	0x3f892665	1.0714842
3	0x3f8bb9b8	1.0916052
4	0x3f6e1a9d	0.9300936
5	0x3f5392a3	0.82645625
6	0x3f21a8ec	0.6314838
7	0x3fa224a0	1.2667427
8	0x3f565571	0.83724123
9	0x3f8b8e85	1.0902869
10	0x3f010789	0.5040212
11	0x3f7ef3b4	0.9959061
12	0x3f5018ab	0.8128764
13	0x3fa97b5b	1.324077
14	0x3fa7d53a	1.3111947
15	0x3f903ae5	1.1267973
16	0x3f722de3	0.9460127
17	0x3f5709b0	0.83999157
18	0x3f2ecaf2	0.6827842
19	0x3f941b4a	1.1570828
20	0x3f14a6ee	0.58067214
21	0x3f9ac901	1.2092592
22	0x3f521dc6	0.8207668
23	0x3f8e15ed	1.1100441
24	0x3f877996	1.058398
25	0x3f81774a	1.0114529
26	0x3fa70234	1.3047547
27	0x3f6dab75	0.9283975
28	0x3fb23eb1	1.3925382
29	0x3f80bfc6	1.0058525
30	0x3f8f404d	1.1191498
31	0x3f8d0a28	1.1018724
32	0x3f2d95f4	0.67806935
33	0x3f776ee7	0.966536
34	0x3f51182a	0.81677496
35	0x3f7a5cec	0.9779804
36	0x3f9903b2	1.1954253
37	0x3f5f7cee	0.873
38	0x3f81ef12	1.0151083
39	0x3f59a289	0.85013634
40	0x3fbcdb83	1.475449
41	0x3f8f4694	1.1193414
42	0x3f6c8c4c	0.92401576
43	0x3f89640a	1.0733654
44	0x3f819f62	1.0126765
45	0x3f411574	0.7542336
46	0x3f603e72	0.87595284
47	0x3f5940e8	0.84864664
48	0x3f46c841	0.77649313
49	0x3fa17e40	1.2616653
50	0x3f5fe8ea	0.87464774
51	0x3f997f0d	1.1991898
52	0x3f9cb940	1.2244034
53	0x3fb69ec9	1.4267207
54	0x3f921bb0	1.14147
55	0x3f3602b8	0.710979
56	0x3f82c4ce	1.021631
57	0x3f910ae4	1.1331449
58	0x3f899850	1.0749607
59	0x3f99d00b	1.2016615
60	0x3f693c55	0.91107684
61	0x3f5b12a1	0.855753
62	0x3f58223d	0.84427243
63	0x3f67f405	0.9060672

BatchNormalization_5_param1 f4 [64]
0	0xbf910143	-1.132851
1	0xbef49351	-0.47768643
2	0xbee763b7	-0.45193264
3	0xbe5ef0c2	-0.2177153
4	0xbd9dce90	-0.07705414
5	0x3e13362b	0.14376132
6	0x3e21b73a	0.15792552
7	0xbf396f87	-0.724358
8	0xbc8ab46a	-0.016931731
9	0xbe6d3ce8	-0.23167765
10	0xbef04188	-0.46924996
11	0xbe3cbe72	-0.18432024
12	0x3e69f163	0.22845988
13	0xbeac257d	-0.3362235
14	0x3e3698ff	0.17831801
15	0xbe02dc93	-0.12779455
16	0xbdfb2249	-0.12262399
17	0xbf0e1d07	-0.5551304
18	0xbf5d9ee7	-0.8657059
19	0xbf199131	-0.5998717
20	0xbdf1cccf	-0.11806642
21	0xbddfaaae	-0.109212264
22	0x3e1c961c	0.15291637
23	0xbf07efaf	-0.53100103
24	0xbeec3723	-0.46135816
25	0x3c656b27	0.014002598
26	0xbddd165d	-0.10795281
27	0x3e8a2b78	0.2698629
28	0xbd879357	-0.066199
29	0xbe19a647	-0.15004836
30	0xbeee6b75	-0.46566358
31	0xbfb26ea5	-1.3940016
32	0xbe2856fb	-0.1643943
33	0x3efc394d	0.49262467
34	0x3e932c40	0.28744698
35	0x3d9b949a	0.07596703
36	0xbe35b739	-0.17745675
37	0x3f0c7e0a	0.5487982
38	0xbe5ce2d4	-0.21570903
39	0x3d0506e0	0.03247726
40	0x3d95f53d	0.07322166
41	0xbe97b150	-0.29627466
42	0x3f56e675	0.839454
43	0x3d1bb310	0.038012564
44	0xbe01d525	-0.12678964
45	0x3d633f08	0.055480033
46	0x3efa31e9	0.48866203
47	0x3e9b70a0	0.30359364
48	0xbdc706dc	-0.09718105
49	0xbd50ea46	-0.05100467
50	0xbdee232e	-0.11627804
51	0x3b0f9c90	0.0021913387
52	0xbd4c494a	-0.04987458
53	0xbf21092b	-0.62904614
54	0xbe8d32c3	-0.2757779
55	0xbddb2ef3	-0.10702314
56	0xbef6280f	-0.48077437
57	0xbd4fbf7e	-0.05071973
58	0xbd693f50	-0.056945145
59	0x3e4ff9b3	0.20310096
60	0xbe74dddb	-0.23912756
61	0x3ebc32fd	0.3675765
62	0x3ef5a4b5	0.47977224
63	0x3d2e36df	0.042532798

BatchNormalization_5_param2 f4 [64]
0	0xbef49807	-0.47772238
1	0xbf7b6902	-0.98207104
2	0xbe8a83ba	-0.27053624
3	0x3fa35c8e	1.276262
4	0xbf5adea3	-0.85495967
5	0x3e011866	0.12606964
6	0x3f5ec73d	0.87022763
7	0xbe45f86e	-0.1933305
8	0x3fa71ffe	1.3056638
9	0x3fe8177b	1.8132166
10	0xbe755af5	-0.23960479
11	0xbf99c526	-1.201329
12	0x3e4dc281	0.20093729
13	0xbe939662	-0.2882567
14	0xc013c156	-2.3086753
15	0xbe5e04a1	-0.21681453
16	0x3fa4a718	1.2863493
17	0x3efd4918	0.4946983
18	0xbe619e0a	-0.22032943
19	0xbf35014b	-0.707051
20	0xbf80c0ec	-1.0058875
21	0xbe5ab979	-0.21359815
22	0xbf5ea222	-0.86966145
23	0xbe4826e7	-0.1954609
24	0x3f1b4059	0.6064506
25	0xbf8440a7	-1.033223
26	0xbf2269a2	-0.6344243
27	0x3d88fe1b	0.06689092
28	0x3ec8a851	0.39190915
29	0xbf090c3a	-0.5353428
30	0xbf833967	-1.0251893
31	0x3eb44b1e	0.3521356
32	0x3ecc5950	0.3991189
33	0x3f39cad7	0.72575134
34	0xbf937c02	-1.1522219
35	0x3da84a0b	0.082172476
36	0xbf44d877	-0.768928
37	0x3f16e8d0	0.58948994
38	0xbe663c58	-0.22483957
39	0xbeb9ef74	-0.363155
40	0xc0055002	-2.0830083
41	0x3ff6ce58	1.9281721
42	0xbdccdd7f	-0.100031845
43	0xbecad93e	-0.39618868
44	0xbfac2b2a	-1.3450673
45	0xbf7d642c	-0.98980975
46	0xbfc12c3d	-1.5091625
47	0xbfd5d602	-1.6705935
48	0xbf8c9c25	-1.0985152
49	0xbf749c7a	-0.95551264
50	0xbfa2453e	-1.2677381
51	0xbf8fa3b1	-1.122183
52	0xbf166937	-0.58754295
53	0xbfe6d154	-1.8032632
54	0x3e0996dd	0.13436456
55	0xbf02bb59	-0.5106712
56	0x3e53744a	0.2064983
57	0x3d4a962e	0.04945963
58	0xbfa62af5	-1.298186
59	0xbfaaa20b	-1.3330702
60	0x3e520999	0.20511474
61	0xbe2c8613	-0.1684802
62	0xbe89d223	-0.26918134
63	0xc005257f	-2.0804136

BatchNormalization_5_param3 f4 [64]
0	0x3f00ea8a	0.5035788
1	0x3fb7feb9	1.437461
2	0x3f8a6bf5	1.0814196
3	0x40aab874	5.3350163
4	0x3fbd57fe	1.4792478
5	0x3eeb0b45	0.45907035
6	0x3fbe782c	1.4880424
7	0x4052bdee	3.2928424
8	0x3fffb9f5	1.9978625
9	0x4092d117	4.5880237
10	0x3f2261e5	0.63430625
11	0x3fc73ec1	1.5566026
12	0x3eae49dc	0.34040725
13	0x403db778	2.964323
14	0x409e3b31	4.9447255
15	0x3f6e08df	0.92982286
16	0x401b3c5b	2.4255588
17	0x3f44ff6d	0.7695225
18	0x3f7407c1	0.9532433
19	0x403aca44	2.9185953
20	0x3fa8e32f	1.3194331
21	0x40239f46	2.5565963
22	0x403b5780	2.9272156
23	0x3fada28d	1.3565232
24	0x3fc505a2	1.5392344
25	0x40360fcf	2.8447149
26	0x40aa8f38	5.3299828
27	0x3f6b3a9b	0.918863
28	0x40b1e993	5.5597625
29	0x4029d8da	2.6538606
30	0x3f7f86d0	0.9981508
31	0x3f2ce6e1	0.67539793
32	0x3f36e81e	0.7144793
33	0x3f68e71d	0.9097765
34	0x40509056	3.2588096
35	0x403de665	2.9671872
36	0x40818803	4.047853
37	0x3ff31240	1.8989944
38	0x3f52fc20	0.8241596
39	0x3f4dcbec	0.80389285
40	0x413d2635	11.821828
41	0x40cd063f	6.4070125
42	0x3ff7284e	1.9309175
43	0x40633bfb	3.550536
44	0x404dc22f	3.214977
45	0x401c5c14	2.44312
46	0x3fbf5471	1.4947644
47	0x404f2e4c	3.2372007
48	0x3fc9e542	1.5773089
49	0x3ff9827a	1.9492943
50	0x3faa4e42	1.3305132
51	0x40446506	3.068666
52	0x40bcc494	5.8989964
53	0x4047161a	3.110724
54	0x40caad0b	6.3336234
55	0x3f60611c	0.8764818
56	0x3f26e084	0.65186334
57	0x40284369	2.6291144
58	0x3f106e4a	0.5641829
59	0x40dfd6a6	6.994952
60	0x3fbcacda	1.474025
61	0x3fbbf02f	1.4682673
62	0x40711c2d	3.7673447
63	0x402d43f9	2.7072737

BatchNormalization_6_param0 f4 [64]
0	0x3f82924b	1.0200895
1	0x3f96b6aa	1.1774495
2	0x3f97228b	1.1807417
3	0x3f98b3f9	1.1929923
4	0x3f8aafbd	1.0834881
5	0x3f46a63e	0.77597415
6	0x3f672128	0.9028497
7	0x3f6aaf33	0.9167358
8	0x3f776017	0.96630996
9	0x3f879a7b	1.0594019
10	0x3f8fdf1f	1.1239966
11	0x3f82837c	1.0196376
12	0x3f8a2e3a	1.0795357
13	0x3f9f1fb2	1.2431548
14	0x3f7357e3	0.9505598
15	0x3f68980b	0.90857
16	0x3f5c9a64	0.8617308
17	0x3f61ff1b	0.88279885
18	0x3f6daabf	0.9283866
19	0x3f802eb6	1.0014255
20	0x3faa329c	1.3296695
21	0x3f859209	1.0435191
22	0x3f93b798	1.1540403
23	0x3f888f55	1.0668741
24	0x3f88280c	1.0637221
25	0x3f98140a	1.1881115
26	0x3f99e0e6	1.2021759
27	0x3f60036c	0.8750522
28	0x3f91ec0c	1.1400161
29	0x3f861760	1.0475883
30	0x3f8e363f	1.1110305
31	0x3f5b89e8	0.85757303
32	0x3f9894b9	1.1920387
33	0x3f68e135	0.9096864
34	0x3f8388f7	1.0276173
35	0x3f879627	1.0592698
36	0x3f83b5b3	1.0289825
37	0x3f8382f9	1.0274345
38	0x3f7737b0	0.9656935
39	0x3f5099d0	0.814847
40	0x3f9ddfe6	1.2333953
41	0x3f6e193e	0.93007267
42	0x3fb5610a	1.4170239
43	0x3f97531c	1.1822238
44	0x3f841628	1.0319262
45	0x3f89d01b	1.0766634
46	0x3f977bdb	1.1834673
47	0x3f8b02fe	1.0860288
48	0x3f419a30	0.75625896
49	0x3f94e114	1.1631188
50	0x3f98b1a7	1.1929215
51	0x3f81c7ba	1.0139077
52	0x3f2b2999	0.6686035
53	0x3f8f118c	1.117723
54	0x3f80ac7f	1.0052642
55	0x3f80efbb	1.007316
56	0x3f747473	0.9549019
57	0x3f91e0cf	1.1396731
58	0x3f8506f7	1.039275
59	0x3f7dec86	0.9918903
60	0x3f90c36a	1.1309636
61	0x3f83d3b0	1.0298977
62	0x3f8115d1	1.0084783
63	0x3f663f51	0.89940363

BatchNormalization_6_param1 f4 [64]
0	0xbd187118	-0.03721723
1	0xbe6396e4	-0.22225529
2	0xbe0252ec	-0.12726945
3	0x3d7008e0	0.058602214
4	0xbe488847	-0.19583236
5	0x3e96cae9	0.29451683
6	0xbf7c1a89	-0.9847799
7	0xbcafc1e6	-0.021454763
8	0xbede0a6a	-0.4336732
9	0xbe83988d	-0.25702325
10	0x3e1e2194	0.15442497
11	0x3e9a51ae	0.30140442
12	0xbf214d94	-0.63009
13	0xbeba89ce	-0.36433262
14	0xbe1ec5f3	-0.15505199
15	0xbf757957	-0.95888275
16	0xbe58a241	-0.21155645
17	0xbe11802d	-0.14209051
18	0xbecbac77	-0.39780018
19	0xbe905bc1	-0.28195003
20	0x3cc2f2bd	0.023797387
21	0x3ca6af6e	0.020347323
22	0xbd4f8448	-0.050663263
23	0x3d964fd6	0.07339446
24	0xbf02e171	-0.51125246
25	0x3dac2830	0.08406103
26	0xbe7de811	-0.24795558
27	0xbe5fc107	-0.21850978
28	0xbdc10292	-0.094243184
29	0xbeabab6b	-0.3352922
30	0xbece7692	-0.40324837
31	0x3be76ab2	0.0070622796
32	0xbc71803c	-0.014740046
33	0x3d167ef6	0.036742173
34	0xbe3ce9b7	-0.1844853
35	0xbd8a38dd	-0.06749127
36	0xbd5decea	-0.054181017
37	0x3e213a87	0.15744983
38	0xbea89be0	-0.32931423
39	0x3ed37947	0.41303465
40	0xbdb30ffd	-0.08743284
41	0xbda3089b	-0.07960626
42	0x3e558603	0.20851903
43	0x3dac707d	0.08419893
44	0xbea6304b	-0.3245872
45	0xbeb130a3	-0.3460742
46	0xbf082509	-0.5318151
47	0xbd143692	-0.036184855
48	0xbfb8db7c	-1.4441981
49	0xbe1d2d0b	-0.15349214
50	0xbd7cd306	-0.061724685
51	0xbeb4f546	-0.3534338
52	0xbe251a9c	-0.16123432
53	0x3e7fe400	0.24989319
54	0xbdbe99b3	-0.093066595
55	0xbedb7cd1	-0.42868665
56	0xbec38aed	-0.3819193
57	0x3d876088	0.06610209
58	0xbf16bdcc	-0.5888336
59	0x3d963bc3	0.073356174
60	0xbe93e040	-0.28882027
61	0x3dde1b4e	0.10845052
62	0xbd9a166c	-0.07523808
63	0xbf0cfbe8	-0.5507188

BatchNormalization_6_param2 f4 [64]
0	0xbeda29d6	-0.42610043
1	0x3f9175dc	1.1364093
2	0xbf4a3928	-0.78993464
3	0xbffc3402	-1.9703372
4	0x3e91699d	0.2840089
5	0x3f26823c	0.6504247
6	0x3da2f10b	0.079561315
7	0xbe857ec9	-0.26073292
8	0xbf867e26	-1.0507247
9	0xbf862f9f	-1.0483283
10	0xbf37cc96	-0.7179655
11	0xc03c1f6d	-2.939418
12	0xbf9480b9	-1.1601783
13	0xbf070c58	-0.5275321
14	0x3f7aee20	0.980196
15	0x3e624dd6	0.22100005
16	0xbfbfeab3	-1.49935
17	0x3fb43876	1.407973
18	0xc03b653a	-2.9280534
19	0x3f560ef1	0.8361655
20	0xbf976b4b	-1.1829618
21	0x3fae9193	1.3638176
22	0x3e1c8a72	0.15287188
23	0xc048b010	-3.135746
24	0xbf6594cf	-0.8968019
25	0xc01b90ce	-2.4307132
26	0xc05a7530	-3.4134026
27	0x3f311588	0.6917348
28	0xbf560fb9	-0.8361774
29	0x3f834cb7	1.0257787
30	0x3fc0708f	1.503435
31	0x3e6f7c76	0.23387322
32	0x3cc5c4f6	0.02414177
33	0x3fa5258b	1.2902082
34	0x3f4b3ec2	0.79392636
35	0x3dc4e0e5	0.09613208
36	0xbf603e3b	-0.87594956
37	0xbfd58e54	-1.668406
38	0xbee688f4	-0.45026362
39	0x3db560c0	0.08856344
40	0x3ef7eca5	0.48422733
41	0xbd00ca75	-0.031443078
42	0xbfebcde4	-1.8422208
43	0xbe9942fc	-0.29933918
44	0x3e27f7b9	0.16403092
45	0x3ff5b569	1.9195987
46	0xc043de5a	-3.0604463
47	0xbf1bc959	-0.6085411
48	0xbf96b769	-1.1774722
49	0x3f0b5a7e	0.54434955
50	0xbfabc9ac	-1.342092
51	0xbedb4dc9	-0.42832783
52	0x3f459132	0.77174675
53	0xc0743042	-3.8154454
54	0x3f2a08c9	0.66419655
55	0xbe8e087e	-0.27740854
56	0xc0248dab	-2.5711467
57	0x3e2aec93	0.16691808
58	0x3e8d1ba4	0.2756015
59	0x3fc0cc5c	1.5062366
60	0xbe573330	-0.2101562
61	0xc0009fa3	-2.0097435
62	0x3ec0046d	0.37503377
63	0xbf10f9ce	-0.5663117

BatchNormalization_6_param3 f4 [64]
0	0x40265852	2.5991406
1	0x40040a10	2.0631142
2	0x40f7c099	7.7422605
3	0x40644aa3	3.5670555
4	0x4028e6f4	2.6390963
5	0x400fd731	2.2475092
6	0x3efeaae3	0.4973975
7	0x3fb155c8	1.3854303
8	0x4010fec3	2.2655494
9	0x401e80c0	2.4766083
10	0x40211599	2.5169432
11	0x40670624	3.6097498
12	0x400007f8	2.0004864
13	0x40766b88	3.8503132
14	0x40061e17	2.0955865
15	0x3f21d2a3	0.6321203
16	0x3fd47953	1.6599525
17	0x3f87c199	1.0605956
18	0x3fdf7759	1.7458297
19	0x406859f6	3.6304908
20	0x40c579f9	6.1711392
21	0x4041b4ef	3.0266683
22	0x404407c0	3.062973
23	0x4021129d	2.516761
24	0x400991ee	2.1495318
25	0x409f74f2	4.9830256
26	0x4089a755	4.3016763
27	0x4074d6c1	3.8256075
28	0x3fe84fd3	1.814936
29	0x403a2b9e	2.9089122
30	0x404ebcde	3.2302775
31	0x40566eb0	3.3505058
32	0x404f9bcf	3.2438848
33	0x40a8724b	5.263952
34	0x408df26f	4.435844
35	0x4040f898	3.015173
36	0x3ff70f82	1.9301608
37	0x406f6057	3.740255
38	0x3fcea7e6	1.6144989
39	0x3ff48397	1.9102658
40	0x40bffb2b	5.99941
41	0x400194e2	2.024712
42	0x410c4186	8.765997
43	0x40990a07	4.782474
44	0x3f6c92fd	0.92411786
45	0x409d4ea2	4.9158487
46	0x409e3272	4.943658
47	0x4080247c	4.0044537
48	0x3f65515b	0.89577264
49	0x4087e885	4.2471337
50	0x40d977ab	6.795858
51	0x3ffb828d	1.9649216
52	0x3f375a44	0.7162211
53	0x4080c374	4.023859
54	0x3fcc5ea3	1.5966381
55	0x407874bc	3.882125
56	0x3ff08359	1.8790084
57	0x406bcfff	3.68457
58	0x408cfd97	4.405956
59	0x403d7362	2.9601674
60	0x3fefeaa8	1.8743486
61	0x409add8f	4.8395457
62	0x404d3442	3.2063146
63	0x400b5904	2.177308

BatchNormalization_7_param0 f4 [128]
0	0x3f81c8b9	1.0139381
1	0x3f9ef76d	1.2419258
2	0x3f933383	1.1500095
3	0x3fae5bbd	1.3621746
4	0x3f8a0d02	1.078522
5	0x3f941b4e	1.1570833
6	0x3f7f9b84	0.99846673
7	0x3f74dba2	0.95647633
8	0x3f8ea6bc	1.1144633
9	0x3f81eaa8	1.0149736
10	0x3f82fc3e	1.0233228
11	0x3f59759d	0.8494509
12	0x3f8a0b6f	1.0784739
13	0x3f8919da	1.0711014
14	0x3f88e9c1	1.0696336
15	0x3f8c9943	1.0984272
16	0x3fa6b082	1.3022616
17	0x3f84d9cf	1.037897
18	0x3f82feee	1.0234048
19	0x3f894e4b	1.0727018
20	0x3f5772e8	0.8415971
21	0x3fa9d3f9	1.3267814
22	0x3fb9435d	1.4473683
23	0x3f8c1f00	1.094696
24	0x3fa89204	1.316956
25	0x3f77c787	0.9678883
26	0x3faa86b5	1.3322359
27	0x3f6af515	0.91780216
28	0x3f8774b6	1.0582492
29	0x3f735904	0.950577
30	0x3f474423	0.77838343
31	0x3f9097b5	1.1296297
32	0x3f5e01b1	0.8672133
33	0x3f89115d	1.0708424
34	0x3f875cf9	1.0575248
35	0x3fa1a043	1.2627033
36	0x3f98a638	1.1925726
37	0x3fbdb236	1.4820011
38	0x3f86766c	1.050489
39	0x3f70adfb	0.94015473
40	0x3f943b86	1.1580665
41	0x3f7d2f6a	0.98900473
42	0x3f83eb37	1.0306157
43	0x3f83811c	1.0273776
44	0x3f857c43	1.0428547
45	0x3f5d7810	0.86511326
46	0x3f6d05f5	0.92587215
47	0x3f85d486	1.0455482
48	0x3f483e6d	0.78220254
49	0x3f61a4a6	0.8814186
50	0x3f951fda	1.1650345
51	0x3f9f287d	1.2434231
52	0x3f82e26c	1.0225348
53	0x3fae1ee1	1.3603173
54	0x3f554f3e	0.8332404
55	0x3f805a89	1.0027629
56	0x3f93f64e	1.1559541
57	0x3fac4dc7	1.3461236
58	0x3f6bf616	0.9217237
59	0x3f75ffe6	0.96093595
60	0x3f6179d8	0.88076544
61	0x3fafac4e	1.3724458
62	0x3f78214b	0.969258
63	0x3f8946d0	1.0724735
64	0x3f949657	1.160838
65	0x3f8d17e4	1.1022916
66	0x3faad7a4	1.3347058
67	0x3f860b15	1.0472132
68	0x3f60c848	0.87805605
69	0x3f5caeff	0.8620452
70	0x3f69f332	0.9138671
71	0x3f8f0e8f	1.1176318
72	0x3f84927e	1.0357206
73	0x3f686385	0.90776855
74	0x3f73ceba	0.95237315
75	0x3fbe626f	1.487379
76	0x3f8c8c70	1.0980358
77	0x3f71917c	0.94362617
78	0x3fc5676c	1.5422187
79	0x3f8bd4c0	1.0924301
80	0x3f7b6ddd	0.98214513
81	0x3fa35f56	1.2763469
82	0x3f829dc1	1.0204393
83	0x3f9359fb	1.1511835
84	0x3f796b0a	0.97428954
85	0x3f7715ce	0.96517646
86	0x3f512d8c	0.81710124
87	0x3fa235eb	1.2672704
88	0x3fa9f191	1.3276845
89	0x3fa16220	1.260807
90	0x3f8da65a	1.1066391
91	0x3f9885a5	1.1915785
92	0x3f7403c4	0.95318246
93	0x3f844a9f	1.0335273
94	0x3fac62ec	1.3467689
95	0x3f79a274	0.9751351
96	0x3f8957c4	1.0729909
97	0x3fa56d7a	1.2924035
98	0x3f5750fb	0.8410794
99	0x3f78c770	0.9717932
100	0x3f6c0434	0.92193913
101	0x3f94aa23	1.1614422
102	0x3f72bb06	0.94816625
103	0x3f85ce50	1.0453587
104	0x3f7c4ee2	0.98557866
105	0x3f7aa844	0.97913
106	0x3f82eb6f	1.0228099
107	0x3fc751e7	1.557187
108	0x3f997614	1.198916
109	0x3f3f32c2	0.74686825
110	0x3f56fbd6	0.8397802
111	0x3f6e61d2	0.9311801
112	0x3f7147cf	0.94250196
113	0x3f7c7067	0.9860901
114	0x3f98efcb	1.1948179
115	0x3f94cb2b	1.1624502
116	0x3f9b485d	1.2131459
117	0x3fac7ee5	1.3476225
118	0x3fba5574	1.4557328
119	0x3f921a21	1.1414224
120	0x3f900abd	1.1253277
121	0x3f819c6f	1.0125865
122	0x3f886b8f	1.0657824
123	0x3f619699	0.8812042
124	0x3fa9b95d	1.3259693
125	0x3f7eae7a	0.9948498
126	0x3f6e2bae	0.930354
127	0x3f9806fd	1.1877133
